server/predict/ml_model/model_param/model_states.pth (torch, 388053 bytes, 12 tensors)

base.0.weight f4 [8, 3, 3, 3]
00000000: 24dc 7ebe 8444 f23d 61f7 123e f149 6fbe
00000010: 4bbd 3b3e e571 543d fe7e 4bbe 4c08 1dbe
00000020: bf26 e13d 1447 8c3d 7f23 91bc 4d10 383e
00000030: eebf 8c3d 7c87 dd3d 884a e8bd a577 b83d
00000040: 8890 063e 4c44 dfbd 3cad 66be eacd 283e
00000050: a8a1 f03d 557b 4fbe 2959 353e 3108 fb3d
00000060: 9821 33be 79be 263d 89bb 2c3e 403d cf3d
00000070: 9c6f c13c 3986 433e b9c0 463e ea10 193e
00000080: 3ab7 893e 6351 aebd 626d 01be 7860 943e
00000090: fc73 9bbd 4529 b63d f21a 103e aa15 643d
000000a0: 03f9 05be ad5d 40bd d9be 12be 7c46 4dbd
000000b0: b0a2 4a3c c899 633d d32a 94be 7535 393e
000000c0: 0f36 b43d de64 c3bd 26aa 023e 0db1 2cbe
000000d0: aa0b 29be a349 373e 3da4 4f3d 94a8 08be
000000e0: bfb0 293e bf14 fb3d 03cd 553c 926c 2cbe
000000f0: c186 d93d fe33 89bd be5f dfbd dcb3 663e
00000100: dd1b 83bd ff9a abbd 594d 3c3d 0b28 b53d
00000110: 46b8 35be 69b1 9fbd 06be ed3d 86a3 fcbd
00000120: c126 fbbc a974 c03d 3a83 8dbe caec cebd
00000130: 07cc b33b 53db 20be 504f 363e 8bdf fdbc
00000140: c3e4 40be f66a 9e3d 9c5a 7c3d 29ae 233e
00000150: e50a 4fbd 7b3f 30bd 589f 0abe 045e d4bd
00000160: 02a4 77bd 496e 443e 467a 543e cc35 1a3e
00000170: 245f 98bb ffa3 783e 106c 1dbe 8b71 af3d
00000180: cc58 263e e3fc 263e 45fc 4d3d 0982 503e
00000190: c3c0 1fbe 50b5 6f3d 5a0d 4a3e 276c 9abd
000001a0: e86f 8abd c05a 533e 815c 97bd 9e1b d3bb
000001b0: 55a1 963e c7b3 c43c e429 0d3d 0494 673e
000001c0: b714 bbbd f8a1 ddbd 0545 27be 8369 80bd
000001d0: 6016 263e 6a49 713e 0610 2f3e a6d7 febd
000001e0: 23b1 753d 360e 39be 69e5 1abe 1ce2 a13d
000001f0: f250 4cbd fafd 35be 13ae 273e 013d 813e
00000200: 8e3f 00be 0ffa 233e d103 10be 8a28 dbbd
00000210: 064f 30be 1ff9 30be e8ee dfbd 3561 213e
00000220: 4dbc 8cbd b1c1 30be 7457 0bbd 1b38 25be
00000230: 3359 b9bb 5a61 053e d0f7 00be c687 693c
00000240: 574c 5b3d f139 253e 074f d5bd c79a 09be
00000250: 5c2a 2f39 dcd7 353d 4b3b ad3d 3cef 23be
00000260: 8715 393e 8b5b 803e 27cc cabd d5da fe3d
00000270: a7eb 7d3e ac23 2f3e 6e33 5e3e 7982 933e
00000280: bb9d 97bd f5a3 473d 1fee 593d a95b 77bd
00000290: 1a3c 033e 5efd 18be c242 7cbd 8532 4e3e
000002a0: 5fb2 4abe 3307 883d c955 ca3c fa1b a23d
000002b0: 82c7 fb3d 6ab9 53be 6f41 d53d b570 e6bb
000002c0: 3130 5f3d 3f6d 91bd 6500 0a3d 214c 843e
000002d0: 010f b23d b588 54be 2a8d 89be acd3 debd
000002e0: 7dd5 263e e46e 813d 6b8e f3bd 38d3 f63d
000002f0: 6a16 5d3e 3f6e 0cbd fcd2 bc3d 72f6 d3bd
00000300: 5351 1c3d e783 403e 86fd 19be ffa7 62be
00000310: e3fd 763d fb4f 83bd 9248 813d f0e2 7f3e
00000320: 979e 59bc eb4c 033d f424 1cbe 705c e83c
00000330: 95e5 7f3d c1f5 52be 03ba 87bc 6f21 083e
00000340: f2e4 613e 7bd6 573e 2d90 3c3e 5627 afbc
00000350: 674f 633d ab9e 5fbe f599 bcbd b81a e0bd
-0.24888664 0.118294746 0.1435218 -0.2336805 0.18333928 0.05186643 -0.19872662 -0.15335196
0.10993718 0.068494946 -0.017717121 0.17974968 0.06872545 0.10816857 -0.11342341 0.090071954
0.13141072 -0.109016985 -0.22527021 0.164848 0.117495835 -0.20261891 0.17709793 0.12257422
-0.17493284 0.040708993 0.16868414 0.101191044 0.02361279 0.1909417 0.19409455 0.14947858
0.26897603 -0.08511617 -0.12639382 0.2897985 -0.07590482 0.0889459 0.14072779 0.055684723
-0.13083272 -0.046964336 -0.14330615 -0.050116047 0.012367889 0.05556658 -0.28938922 0.18086798
0.08799373 -0.09540723 0.12760219 -0.16864415 -0.16508356 0.17899184 0.05069374 -0.13345557
0.1657133 0.122598164 0.013049367 -0.16838291 0.106214054 -0.0669937 -0.10906933 0.22529548
-0.06401799 -0.083791725 0.045972202 0.08845528 -0.17746076 -0.0779751 0.1160851 -0.12335877
-0.030658128 0.09397251 -0.2763918 -0.10103758 0.0054869684 -0.15708666 0.17803693 -0.030990383
-0.18837266 0.07735245 0.06160985 0.15984406 -0.0505475 -0.04302929 -0.13537347 -0.103694946
-0.060459144 0.19182695 0.20749769 0.15059584 -0.0046500135 0.2428131 -0.15373254 0.085665785
0.16244811 0.16307406 0.05028941 0.20362104 -0.15600877 0.058522522 0.19731656 -0.0754016
-0.06759626 0.20640087 -0.073906906 -0.006442501 0.29419962 0.024011506 0.03446378 0.22615057
-0.091348104 -0.10821909 -0.16334923 -0.06270125 0.16219473 0.23563161 0.17095956 -0.124434754
0.059983384 -0.18071827 -0.15126576 0.07904455 -0.049881883 -0.17772666 0.16374998 0.25241855
-0.12524244 0.16013359 -0.14063956 -0.107010916 -0.17217645 -0.17282532 -0.109342396 0.15759738
-0.06871853 -0.17261387 -0.03401895 -0.16134684 -0.0056563853 0.13025418 -0.12594533 0.014253562
0.0535396 0.16135384 -0.10415464 -0.13437949 0.0001670508 0.044395313 0.08458575 -0.1600923
0.18074618 0.25069842 -0.0990222 0.12444083 0.24796925 0.17103451 0.21699306 0.2881048
-0.074031316 0.048740346 0.053205606 -0.06039015 0.12815896 -0.14940402 -0.061587103 0.20136459
-0.19794606 0.06641998 0.024699109 0.07915492 0.122939125 -0.20676199 0.10412871 -0.0070324787
0.05448932 -0.07100915 0.033691783 0.25839332 0.08694268 -0.20755275 -0.26865512 -0.10880217
0.16292377 0.06319979 -0.118923984 0.120520055 0.21590582 -0.034284826 0.092199296 -0.1034974
0.038163494 0.18800317 -0.15038118 -0.22134398 0.06030072 -0.064117394 0.0631267 0.24988914
-0.01328244 0.032055777 -0.15248471 0.02836439 0.062474806 -0.2060156 -0.01656819 0.13294004
0.22059992 0.21077912 0.18414374 -0.021381062 0.055495646 -0.21837871 -0.092090525 -0.10942596

base.0.bias f4 [8]
00000000: 657a c43c e633 8fbe 59ba 85be 37bb f13d
00000010: 9336 c63d e177 fe3d 25ab 253d a5c5 d43d
0.023984144 -0.27969283 -0.26118734 0.118032865 0.09678378 0.12425209 0.04044642 0.1038926

base.3.weight f4 [32, 8, 3, 3]
00000000: 08a9 02be ea87 a6bd 9eea 223c 5f0a 58be
00000010: 39d1 2abe 0ed6 bfbd d432 95bd bf97 06be
00000020: 33c9 873d 3c0b 603d 8d74 883b b810 f33d
00000030: 310b 87bc ed60 8b3c 5530 643e 0503 b0be
00000040: 1f74 7fbd b2a9 443e 868d 78be d70d 26be
00000050: 6f29 04bd e8f8 babd bf9b 08be a8cd e1bd
00000060: 54f2 7dbe 237d 6ebe d263 91bd 3b1c b23d
00000070: 1159 bcbd eca9 18bd c43a 5fbd 31a6 573c
00000080: 81c1 3dbd db0a e5bc 9696 9bbd 1666 893d
00000090: 57c2 aebd 6581 f4bc 2b66 93bd cb54 ddbc
000000a0: 13cf 2f3c 1efa 90bd ced6 58bd 050b 1e3d
000000b0: 7d6c 783c 1f7f 56bd 2144 333d 3676 53bd
000000c0: 81ec a53c 8cbf 4fbc f20f 793d 3baa a33d
000000d0: a78b 6fbc 3d7f 913d 0077 91bd 3a70 0dbe
000000e0: 3bc0 dbbd df81 b6bd 5e9a e0bd 5bbc f8bc
000000f0: d066 90bd 77d5 64bc 8dd0 113c 08d9 9dbd
00000100: f56e 2a3c 4c59 d4bd 4cee a83c 3ec4 7bbd
00000110: b2ca 003d 8d10 0f3d 6690 363c 4bf1 99bc
00000120: 7f83 90be 29d6 38be 9ff4 0fbd e602 e9bd
00000130: da2c 3dbd 6619 1a3d 8c5f 263d 6caa 893d
00000140: eaf8 ee3d d5ab b4bd 5d53 223e 20cc e9bc
00000150: 8877 a63a b452 283e 6761 903d cc5f 773e
00000160: b5bc 183e 840d c53d bf9f a83d 3918 40bc
00000170: 2acf 50be 63be 553e 595b ae3c c568 8abd
00000180: 47b9 353d a21b 753c 503e 783e bd1c c9bd
00000190: 8520 97bc 4d71 68bd 8fd9 553d 9f49 85bb
000001a0: 056f e7bc 6a0d 093d 6e1e c83d ce03 02bd
000001b0: f5db 17bd d8c9 833d 9379 69bd f7fa 973d
000001c0: 1577 61bc b487 80bd fa95 01bd d79f ce3c
000001d0: 8a1e 293e 4443 9bbd a083 21be de37 8dbc
000001e0: d529 5b3d 5145 26be b2c3 9cbd e273 80bd
000001f0: fc62 b63c ef1b 903d 061b b4bd 3e95 74bb
00000200: 2ca4 bc3d fde7 c03d 801b 023b 83da 043d
00000210: 2424 043e 89f2 0c3d 87ab 033a fde7 38bc
00000220: 57e7 f0bd be24 c3bd 3554 f6bd 818c 4cbe
00000230: 5c9a 77bd 1980 223d 227e 23be 1418 0e3d
00000240: 884d 443e 4e81 c63d 0e51 5abe b218 1e3e
00000250: 0b79 013e af79 8dbe a0c2 a83d 6da6 a13d
00000260: 343d e9bd 24d0 dcbd 1b63 89be 44fc 9dbe
00000270: 9e15 7cbe 74c2 65be 8746 63be 1a0b 98be
00000280: f4e1 37be b38a 07be 8808 4dbe 5e5b 0b3d
00000290: 6030 513e b0ac 18be d182 16be 09bd 573e
000002a0: d442 03be f9c6 e5bd 947b 083e acfc 373e
000002b0: ba88 e23d 6a23 a4bd 5efc 2e3e 2059 353d
000002c0: c7d4 5abe d43c b33d 7504 a2bd 0543 0bbe
000002d0: db1c 98bd 293b 61bd 1879 e23d 18e2 c2bd
000002e0: d4a1 08bd 8142 cd3d 526a c3bd e777 3c3d
000002f0: 12de 163e 3e04 243e 4efe 1d3e 7b71 60bd
00000300: 18db d93d bcdc dc3d e107 11bd 4dfb 493e
00000310: 4b4b 0c3e 3175 ca3b 63f2 82bd 28bf 7c3d
00000320: 2545 85be 21b1 203c b5d3 21bd d905 35be
00000330: d95d cfbc 27ba 97bd 7fea 403b 1ec2 28bc
00000340: 5c7d 97bd 98af ce3c 1885 5bbd 4c2c 4cbc
00000350: 79fd 44bd 252a 0b3c 51ad 4fbd 714f 80bd
00000360: a168 ff3d cf73 013e 699c bf3d 2b58 0b3e
00000370: 6de0 963d 533e ccbc 886b 793c 81c8 023e
00000380: 8e51 293e 7559 f8bd d3f0 87bd 67e6 74be
00000390: c09f 40be 0fd9 c9bd 1a85 9fbe 6a53 0bbe
000003a0: a4e5 7fbe 0478 3cbe 7fee af3d b288 0d3d
000003b0: c3f9 08bd b74a f83d 84fa 20be 9232 fbbd
000003c0: a8fe 2b3c a6c7 37bd 99b6 bbbb c1ab 83be
000003d0: 40c2 e6bd 6989 68bd 0e77 4dbe 63db 0fbb
000003e0: 9522 2cbd bc3f 0ebe bbe9 2ebd 58fe b23d
000003f0: 8478 fbbd c216 3ebe 3786 59bc 4c0a 16be
-0.12759793 -0.08131392 0.009943632 -0.21097706 -0.16681375 -0.093669996 -0.07285085 -0.13143824
0.066301726 0.054698214 0.0041642846 0.11868423 -0.016484829 0.017013991 0.22284062 -0.34377304
-0.0623666 0.19205359 -0.24272737 -0.16216217 -0.032266077 -0.09129506 -0.13340662 -0.11025554
-0.24799472 -0.23289923 -0.07099117 0.08696791 -0.091966756 -0.037271425 -0.054499403 0.013162182
-0.046327118 -0.027959278 -0.07597081 0.067089245 -0.08533161 -0.029846856 -0.07197221 -0.027017972
0.010730523 -0.07078956 -0.05293923 0.038584728 0.015162584 -0.052367326 0.043766145 -0.051626407
0.020254375 -0.012679946 0.060806222 0.07991453 -0.014620698 0.07104347 -0.071027756 -0.13812342
-0.107300244 -0.0891149 -0.10966943 -0.030363252 -0.0705086 -0.01396691 0.00889982 -0.07707411
0.010402431 -0.103685945 0.020621441 -0.061466448 0.031443305 0.034927893 0.011142826 -0.018791815
-0.28225324 -0.18050446 -0.0351454 -0.11377506 -0.046185352 0.037621878 0.040618464 0.067219585
0.1166857 -0.08821837 0.15852113 -0.028539717 0.0012700418 0.16437799 0.07049828 0.24157637
0.14915736 0.096217185 0.08233594 -0.011724525 -0.20391527 0.20873408 0.021283792 -0.067582645
0.044366147 0.014960201 0.2424252 -0.098199345 -0.018448124 -0.056748677 0.052209433 -0.004067614
-0.02825118 0.03346006 0.09771429 -0.03174191 -0.037075 0.06434983 -0.057000708 0.074209146
-0.0137613015 -0.06275883 -0.03163717 0.025222702 0.16515556 -0.07581189 -0.15772867 -0.017238554
0.05350669 -0.1623738 -0.076545134 -0.06272103 0.022263996 0.07036578 -0.08794217 -0.00373204
0.09211001 0.09419248 0.0019852817 0.03243495 0.12904412 0.034410987 0.0005022813 -0.011285779
-0.117628746 -0.095284924 -0.1202778 -0.19975473 -0.060449943 0.039672945 -0.15966085 0.03469093
0.19170201 0.09692632 -0.21319982 0.15439108 0.1264383 -0.276319 0.08240247 0.07893071
-0.11388627 -0.10781887 -0.26833424 -0.30856526 -0.24617621 -0.22437459 -0.22194873 -0.2969597
-0.17957288 -0.13236503 -0.20022786 0.03402268 0.2042861 -0.14909625 -0.1469834 0.21068205
-0.12818462 -0.11219592 0.13328391 0.1796748 0.11061235 -0.08014567 0.17088458 0.04427445
-0.2137023 0.087518364 -0.07911006 -0.13599785 -0.07427379 -0.05498806 0.11058253 -0.0951578
-0.033357456 0.1002245 -0.09541763 0.046012785 0.1473315 0.16017243 0.15429041 -0.054795723
0.10637492 0.10784289 -0.035407905 0.1972477 0.13700597 0.006178521 -0.06393888 0.06170574
-0.26029316 0.009807856 -0.03950854 -0.17678012 -0.025313305 -0.074085526 0.0029436646 -0.010300187
-0.07396957 0.025230214 -0.053593725 -0.012461733 -0.048093293 0.008493935 -0.050702397 -0.06265152
0.12471128 0.12641834 0.09356005 0.13607852 0.073670246 -0.024932062 0.015223391 0.12771799
0.16535017 -0.121264376 -0.066377304 -0.23916017 -0.1881094 -0.09855854 -0.31156236 -0.13606039
-0.24989945 -0.18405157 0.085904114 0.03455419 -0.033441316 0.12123626 -0.15720564 -0.12265505
0.0104977265 -0.044868134 -0.0057285544 -0.25716975 -0.11267519 -0.05677167 -0.20064947 -0.0021950833
-0.042025167 -0.138915 -0.04270337 0.087399185 -0.12278846 -0.18563369 -0.013276628 -0.14652365

base.3.bias f4 [32]
00000000: f9e1 9b3e 028c 6fbe 3173 56bc bd91 e43d
00000010: 5c94 9b3d b5f9 493d a344 68be 00a4 f13d
00000020: cb00 3b3e 5bf1 85be 5f8a 3f3c bdb0 98bc
00000030: 05b8 86be 41af a5bc fa88 50bc 6f46 373e
00000040: d460 08be 340e 0d3d a360 443c c406 9dbd
00000050: 5a51 3d3d bfc5 94bd d04a 673d 781f 5abd
00000060: 124b 87be bd0c 6a3d 46bd 213c dd50 ddbd
00000070: 4f7e 5cbd da33 21bc 9bad 31be 4842 a53d
0.3044584 -0.23393252 -0.013088987 0.1116061 0.07596657 0.049310405 -0.22682433 0.11798859
0.18262021 -0.26160702 0.011690705 -0.018638963 -0.2631227 -0.02022517 -0.01272797 0.17897962
-0.13318187 0.034437373 0.011985931 -0.07667306 0.04622016 -0.072642796 0.05646783 -0.053252667
-0.26424462 0.057141054 0.009871786 -0.10806439 -0.053831395 -0.0098390225 -0.17351381 0.08069283

base.6.weight f4 [64, 32, 3, 3]
00000000: a056 4c3d 5cb7 d83c f0e1 8e3d 197c 3d3d
00000010: 64be 733d 28ce 123d e905 d53c 06d5 543d
00000020: 212c 3e3d 2bf2 4e3d 3839 ba3c d36d af3c
00000030: 3dfe 5b3d 3e73 003d bb5b 133d 4886 383d
00000040: f009 cd3c 316f ae3c 31df 62bd f802 7cbc
00000050: 261b c4bc 0ee6 54bd 1425 bebc 2b5b 1abd
00000060: bbb4 0abd 11d7 9abc 8124 04bd e36b 4cbc
00000070: e92a edbc d0ab 10bd c5d0 45bc 8e0b 92bc
00000080: 84f0 c2bc a817 cebb 1bb0 6fbc b27c ecbb
00000090: 4949 963b 9ef3 aabb 246b fbbb 7b55 05bc
000000a0: 8848 c7bb f3df 31bc 4837 173c 677b e0ba
000000b0: 8878 99bb 7ccf 59bc f2f8 013d c26c 4e3c
000000c0: f141 fc3c b590 c33c bb9b 2d3d 38bf 263d
000000d0: 3563 91bc 0085 3a3d e9ff 89bb b529 44bc
000000e0: d52b 033c 259e 94bb 0326 40bc 1e12 9bbb
000000f0: e54c 61bb 0a2b 4fbc 39b7 cebb 27d4 253d
00000100: 3137 403c 69a3 6a3c 0937 9fbc 16ad 3e39
00000110: 924c 3a3c ae8e 06bd 8b81 05bc fdda f4bb
00000120: c8cb e73d 094d b43d 370e a53d af6a ae3d
00000130: a164 d93d 253d 923d 2080 b03d ae24 b33d
00000140: 155a e23d 965e 063c 5233 b23b c3f2 d93b
00000150: 6bdb 653c 725f aa3c bde6 f03c 4133 7c3c
00000160: 3763 6a3c 14c5 c33c 3d1a 1e3d 607b e9bc
00000170: 8607 cc3b 3db7 dabc 0d84 fabb b2d4 a7bc
00000180: c4ef eb3b b30c a4bc 948a 803b 2710 2ebd
00000190: 56e4 32bd 7a36 f3bc c78d aebd 6624 6dbd
000001a0: c89e 52bd 5abf a5bd a4c2 94bd 613e 82bd
000001b0: da07 b23a 49bb 8dba 2e03 843b f8f8 67bb
000001c0: 0273 0dbc bfeb b7bc 83a6 88ba 4bd5 f6bc
000001d0: 521c d2bc 7a68 e53c 9dff 4cbc ff91 d43c
000001e0: 6b08 483d 622c 383d 1ca7 9abc 231b 613b
000001f0: fe8c 9d3c 2726 5cba 6533 aaba 567f 8abb
00000200: b422 a1bc 5255 91bb d676 723c 8e9b 0abc
00000210: 93fb 48bc c2ae f43c 120d 253d c4ae 003d
00000220: 4aab 1c3d 9a49 c43c 84f4 233c b8d4 263a
00000230: f949 5bba b8a5 413c 2a87 0fbc a3ca 9f3c
00000240: 8143 243d e7de 4cbd d17d 833c f44c febc
00000250: 1cb6 0cbd 9cdf 763c 438d bd3c 3be4 913c
00000260: 16e5 f7bc 9503 663d e3d9 753c 6a58 e13b
00000270: 4a2a 233d bc01 763c c5e5 893c 13c1 563d
00000280: 0337 003d 7118 e13c b488 143d 5115 ac3c
00000290: 8784 b43c f796 0e3d 27b1 303d 421c 0e3d
000002a0: dc97 f93c b023 88bb 80be 203d 8182 fbbc
000002b0: e43c 4bbd 73e2 c2bc e36e ecbc c383 643c
000002c0: aa23 6dbd 65fb 42bd 4a66 fbbc 97bf 67bd
000002d0: 5557 593d e47f 133d f6d6 593b ddc7 473d
000002e0: f083 dc3c b32d 153d b66d 843d 10eb a43c
000002f0: 5275 0a3d ab54 733b a38f 853c b2a6 5b3c
00000300: 8ae7 923c 8137 4bbb 57d3 7abc 387d 0a3d
00000310: baea 143c 3dc2 a53c f54f 2e3d d558 bcbc
00000320: 2882 313d b383 f03c 4ccc e2bc 9f3a 2dbd
00000330: 97d0 11bd aa22 da3c 2972 373d fe7a 0dbd
00000340: 3a97 133c 9d85 8b3c 3289 09bd b67c ecbb
00000350: d20d 1a3c 0f24 ecbc 70d4 55bb c1bb 8f3b
00000360: 7fc8 143d cd3f 1e3c 6488 813c 88b9 ef3c
00000370: 914a 663c 80cc c93c d763 e43c 4e82 2b3c
00000380: b27b 643c d841 dd3c 8f3b 103d ecd0 20bc
00000390: 816a 3d3c b154 1bbd bc3c 183d dfec 1ebc
000003a0: 960e 8abc 07c0 693c 97e1 f93c c7f7 21bc
000003b0: 51aa fc3c 1374 edbc 540b a73c d39f 013d
000003c0: c34c c43c 9593 fbbc 58dc 9bbc e18d e03b
000003d0: e572 d639 dbd8 5e3b e255 a2ba 9f46 f4b9
000003e0: 90cc cf3c a048 f539 5dd1 243a 69b8 b23c
000003f0: cd32 00bd 08e2 51bc d1ae 603c 89ac c2bc
0.0498873 0.02645462 0.06976688 0.046260927 0.059507743 0.035841137 0.026003795 0.051960967
0.046428803 0.050523918 0.022732362 0.021414673 0.053709257 0.031359904 0.035976153 0.045049936
0.025029153 0.021293255 -0.055388633 -0.015381567 -0.023938727 -0.05197721 -0.02321104 -0.0376846
-0.033863764 -0.01890138 -0.032261375 -0.012476894 -0.028951125 -0.035320103 -0.0120737 -0.017827775
-0.023796327 -0.006289441 -0.014629389 -0.0072170133 0.004586373 -0.0052170297 -0.0076726843 -0.008138056
-0.0060816444 -0.010856616 0.009229489 -0.001712662 -0.004683558 -0.013294097 0.031731553 0.012599172
0.030793162 0.023872713 0.042384844 0.040709704 -0.0177475 0.045536995 -0.004211415 -0.011972834
0.008006056 -0.004535454 -0.011727813 -0.0047323843 -0.0034378108 -0.012644539 -0.006308463 0.040485527
0.011731909 0.014321187 -0.019435422 0.00018184292 0.011370795 -0.032850914 -0.008148561 -0.0074723945
0.11318165 0.08803756 0.08059352 0.08516442 0.106148966 0.07140569 0.08618188 0.087472305
0.11052338 0.008201262 0.0054382468 0.006651254 0.014029364 0.020797465 0.0294069 0.015393079
0.014305881 0.023897685 0.03859924 -0.028501213 0.006226483 -0.026698703 -0.007645136 -0.020487163
0.007200213 -0.020025587 0.00392277 -0.042495873 -0.04367479 -0.029689062 -0.08523136 -0.05789604
-0.051420957 -0.08093138 -0.07263687 -0.06359554 0.0013582662 -0.0010813262 0.0040286994 -0.00353962
-0.008633377 -0.02245128 -0.0010425601 -0.030131003 -0.02564827 0.02800392 -0.012512115 0.025948523
0.048836153 0.0449642 -0.018878512 0.003434845 0.01923227 -0.0008398019 -0.0012985287 -0.0042266054
-0.019669868 -0.00443522 0.0147988405 -0.008459939 -0.012267011 0.029868487 0.040295668 0.03141667
0.03824929 0.023960877 0.010007028 0.0006364095 -0.000836521 0.011819296 -0.008760253 0.019505804
0.04010344 -0.050017264 0.016051205 -0.031042553 -0.03435336 0.015067961 0.023138648 0.017809024
-0.030260604 0.05615576 0.0150055615 0.006876995 0.039835252 0.015015062 0.016833195 0.052430224
0.031302463 0.027477475 0.036263183 0.021006258 0.02203585 0.03481194 0.043137696 0.034694918
0.03046792 -0.004154645 0.039244175 -0.030701878 -0.049618617 -0.02378962 -0.028861469 0.01394743
-0.05789534 -0.04760303 -0.030688424 -0.0565792 0.053061802 0.036010638 0.00332397 0.04877459
0.026918381 0.036420535 0.06466238 0.020131618 0.03380329 0.0037129323 0.016303843 0.0134064425
0.017932672 -0.0031008425 -0.015309176 0.033810824 0.009089166 0.020234222 0.04255672 -0.022991577
0.043337017 0.029359674 -0.027685307 -0.042292234 -0.035599317 0.026627857 0.044786606 -0.034541123
0.009008223 0.017031485 -0.033578105 -0.007217015 0.009402709 -0.028825788 -0.0032627843 0.0043863957
0.03632402 0.009658766 0.015812106 0.029263273 0.014055864 0.024633646 0.027879639 0.010468079
0.013945507 0.027008936 0.03521305 -0.009815436 0.011561037 -0.037922565 0.037167296 -0.009700029
-0.016852658 0.014266974 0.030503077 -0.009885735 0.030842932 -0.028986013 0.020391144 0.03164656
0.023962384 -0.030710021 -0.019025967 0.006852851 0.00040902864 0.0034003768 -0.0012385214 -0.00046591923
0.025366098 0.0004678415 0.0006287301 0.02181645 -0.031298447 -0.012810238 0.0137135545 -0.023763912

base.6.bias f4 [64]
00000000: 8b3c 263d 6bff c93c b81e efba 6a33 213d
00000010: fa74 4f3d 4c70 549d d0fa a13c 3148 1f3d
00000020: 25db 73bd 45fb 1fbd 6e40 0fbe 95c3 46bd
00000030: afd6 6cbd 28f8 d8bd 0450 6db7 ab63 f93c
00000040: 8e59 89ba 18c9 35bc 8b82 16be 658e 823c
00000050: a721 38bd 5af2 80bd dee3 063d 1468 c73d
00000060: 49d7 92bb 07b4 59bb cf35 e83c cbfe 723c
00000070: 3567 493d 819d c6af c939 b7bc 9b1a a63c
00000080: 71ae b13d 8e6a 81ba 8113 0ebd b000 403d
00000090: cae5 2c3c 3b3e 423d cf57 393d b36e b63d
000000a0: de27 90bd 110e 043d 6fce 863d 9c60 e13c
000000b0: 93bc f63c 7028 07be 0c7c ad3d 374f bbba
000000c0: 67a4 11be e312 c2b0 6471 e53c d770 cebd
000000d0: 7e5c 40bd d877 393d dbc4 7dbd 1e82 473d
000000e0: f74d 60b8 7649 38ad 2024 443d 48ca 91bd
000000f0: 505d cbbd 1ee1 e5bd 1d63 5fbb 8997 18bd
0.040585082 0.024657926 -0.0018243408 0.039355673 0.050648667 -2.8116023e-21 0.019772917 0.038887206
-0.059535164 -0.03905799 -0.13989422 -0.048526365 -0.057821926 -0.10594207 -1.4144931e-05 0.030443033
-0.001047896 -0.011095308 -0.14698236 0.01593704 -0.04495397 -0.06296225 0.032932155 0.09736648
-0.0044812304 -0.0033218877 0.02834597 0.014831255 0.04917069 -3.6127903e-10 -0.022366421 0.020276358
0.0867585 -0.0009873675 -0.03468657 0.046875656 0.010552833 0.04742263 0.045249756 0.08907833
-0.07038854 0.032239977 0.06582343 0.027511887 0.030119216 -0.1319902 0.08470926 -0.0014290576
-0.14222871 -1.4120726e-09 0.02800817 -0.10080116 -0.046963207 0.045280308 -0.061955314 0.048708074
-5.3478372e-05 -1.0475501e-11 0.047886014 -0.0711866 -0.09929907 -0.11224578 -0.0034086176 -0.03725389

base.9.weight f4 [128, 64, 3, 3]
00000000: d942 0080 7ba4 0080 240d 0000 27ab 0000
00000010: 6e9d 0000 547e 0000 9324 0000 d995 0000
00000020: 94b6 0000 89a6 0000 7822 0080 15c6 0080
00000030: f597 0000 a931 0080 f54c 0000 9ccd 0000
00000040: 0e6b 0080 e80e 0000 af2c 0000 9619 0080
00000050: 1c1a 0080 7111 0080 5a13 0080 7fb8 0000
00000060: 44c2 0080 79c0 0080 c69b 0000 600d b5b1
00000070: a416 05b3 6507 80b2 27d3 a3b2 fcb6 d7b3
00000080: 88bd 78b3 230c 72b2 6e32 6ab3 2690 f3b2
00000090: 9007 0000 0a2e 0100 4849 0000 933a 0180
000000a0: f23c 0180 34a2 0100 decc 0280 dd28 0200
000000b0: 40a2 0180 03db 0100 8897 0200 be6d 0280
000000c0: d724 0180 33b4 0080 b274 0080 8890 0280
000000d0: abd3 0100 31d3 0180 2fe9 7d86 5195 0080
000000e0: 6452 2180 c05d e487 bfb1 1c83 43e1 1585
000000f0: e662 5880 d1b0 0180 aed6 3c04 57c5 2180
00000100: 1a62 0080 4553 0080 be30 0000 3b6c 0080
00000110: 2060 0000 5772 0000 68be 0080 b8ab 0080
00000120: ba4d 09b3 e818 08b4 9747 67b3 bdd7 b5b3
00000130: 02bd 96b4 d5ac 14b4 3259 4eb3 b6e2 0fb4
00000140: 0910 95b3 2ae9 aeb3 1693 84b4 39b4 d6b3
00000150: ccef 53b4 e68c 14b5 e2a6 93b4 fe6e 11b4
00000160: 7ff1 9fb4 e8d7 0eb4 47fb 7b97 3aca ff9d
00000170: ab34 9c99 de1c a29a 2714 56a0 bbee bc9d
00000180: 82ad c297 ff26 859c 2b76 5e99 c599 0080
00000190: d180 0000 10c2 0080 d839 0000 2e3c 0000
000001a0: aa5c 0080 7fc0 0000 9b89 0080 ed0a 0000
000001b0: e360 0000 3572 0080 be4b 0080 2144 0080
000001c0: 3d4e 0080 b5c4 0000 21a4 0080 3b1a 0080
000001d0: ed8e 0080 2b15 fbb2 b46a 00b4 fb9d 88b3
000001e0: ba8e 97b3 f518 9ab4 82b9 49b4 6a81 47b3
000001f0: 5afd 22b4 e6a3 c2b3 9658 0000 b043 0000
00000200: 6122 0180 39bd 0000 3c38 0080 b4cb 0000
00000210: dfd0 0080 9f92 0080 0f74 0080 b760 0000
00000220: e365 0000 90c1 0080 dbb1 0080 ffb8 0080
00000230: 942d 0000 6090 0080 5965 0080 f155 0000
00000240: e493 0180 2dd0 0080 55e6 0100 4f83 0180
00000250: 912f 0080 f6d3 0080 c335 0000 c30e 0180
00000260: 8448 0080 2667 0080 e90b 0080 3c5b 0000
00000270: f896 0000 a380 0080 c1c4 0080 4175 0080
00000280: 30c3 0000 18ba 0000 26f2 0400 96d7 0000
00000290: 4d79 0080 2472 0080 9dce 0000 1ea8 0080
000002a0: 96f4 0000 b374 0000 4e9a 0080 ba56 2587
000002b0: 09a0 3d87 be9a 5a0c 18e0 6f01 949c 1b00
000002c0: 48f5 1e09 d23a 2080 d020 5400 e603 4787
000002d0: 4a72 06b2 e3a1 22b3 71ae 9fb2 ef7d b7b2
000002e0: cad2 c9b3 41eb 77b3 ce1e 4cb2 6da0 38b3
000002f0: 6c0e c4b2 ae0c 72b3 4e0f 7bb4 2489 19b4
00000300: 0a3e 15b4 4f10 0eb5 f965 c9b4 08fd c3b3
00000310: db6c a0b4 121f 35b4 3ef8 b195 7284 7d93
00000320: cb9b 1290 f71a 6891 80eb d40b cef7 bb07
00000330: 8da6 848b 4e02 130a 7f32 290a e6cf f48d
00000340: f67c aa08 f464 a308 8dc4 2489 4bfb ef03
00000350: 7d28 3b85 dad0 ef87 35de a983 8b93 ed86
00000360: e05a 7fa9 d0f7 b4ab 31d4 73aa ec40 01ab
00000370: 42b7 14ad 7a15 1bac d209 0baa 5c60 ceab
00000380: 0257 a1aa db35 0380 7f89 0100 56fd 0100
00000390: cdc7 0000 a95f 0000 ec90 0000 74dd 0080
000003a0: 8201 0000 9eff 0000 400e 0000 af1b 0000
000003b0: 4879 0000 412b 0000 b73f 0000 a25a 0080
000003c0: ee44 0080 0cd5 0000 f27f 0080 e6c6 0000
000003d0: 98be 0080 be4d 0080 00de 0000 bc89 0080
000003e0: 9960 0000 b212 0100 0a8f 0080 aadb 0080
000003f0: 35f0 caa4 374a 9ba7 d48f 99a6 342b 7da6
-2.398e-41 -5.9004e-41 4.714e-42 6.1398e-41 5.6475e-41 4.5318e-41 1.312e-41 5.3755e-41
6.5497e-41 5.9742e-41 -1.2365e-41 -7.1058e-41 5.4512e-41 -1.7815e-41 2.7607e-41 7.3759e-41
-3.8404e-41 5.347e-42 1.603e-41 -9.179e-42 -9.366e-42 -6.257e-42 -6.942e-42 6.6185e-41
-6.969e-41 -6.9046e-41 5.5881e-41 -5.269314e-09 -3.0987067e-08 -1.4904524e-08 -1.9071718e-08 -1.0045002e-07
-5.7914377e-08 -1.40890135e-08 -5.4528236e-08 -2.8354474e-08 2.713e-42 1.08351e-40 2.6288e-41 -1.12848e-40
-1.13699e-40 1.50023e-40 -2.57163e-40 1.9833e-40 -1.5004e-40 1.70402e-40 2.3803e-40 -2.23039e-40
-1.05051e-40 -6.4643e-41 -4.1862e-41 -2.35519e-40 1.67768e-40 -1.67597e-40 -4.7755328e-35 -5.3565e-41
-3.060128e-39 -3.4360728e-34 -4.604832e-37 -7.0473204e-36 -8.117002e-39 -1.55265e-40 2.219787e-36 -3.101364e-39
-3.5192e-41 -2.9871e-41 1.7485e-41 -3.8826e-41 3.4483e-41 4.1017e-41 -6.8305e-41 -6.1601e-41
-3.196849e-08 -1.2675048e-07 -5.384899e-08 -8.467712e-08 -2.8077199e-07 -1.384645e-07 -4.8044235e-08 -1.340039e-07
-6.94127e-08 -8.144919e-08 -2.4693935e-07 -9.997934e-08 -1.9738144e-07 -5.533933e-07 -2.7502307e-07 -1.3544556e-07
-2.979177e-07 -1.3303327e-07 -8.141963e-25 -6.7707035e-21 -1.6151294e-23 -6.704827e-23 -1.8133173e-19 -5.0010027e-21
-1.2580756e-24 -8.811282e-22 -1.1500995e-23 -5.5162e-41 4.621e-41 -6.9617e-41 2.075e-41 2.1588e-41
-3.3242e-41 6.9055e-41 -4.9364e-41 3.92e-42 3.4756e-41 -4.097e-41 -2.7171e-41 -2.444e-41
-2.8067e-41 7.0565e-41 -5.8878e-41 -9.41e-42 -5.1272e-41 -2.9229872e-08 -1.1959747e-07 -6.36173e-08
-7.057447e-08 -2.8702894e-07 -1.8787071e-07 -4.6451e-08 -1.5179594e-07 -9.063642e-08 3.1779e-41 2.4282e-41
-1.04168e-40 6.788e-41 -2.0173e-41 7.3075e-41 -7.4929e-41 -5.2598e-41 -4.1634e-41 3.4695e-41
3.655e-41 -6.9437e-41 -6.3803e-41 -6.6364e-41 1.635e-41 -5.1792e-41 -3.6357e-41 3.083e-41
-1.44889e-40 -7.468e-41 1.74463e-40 -1.3894e-40 -1.7064e-41 -7.6037e-41 1.9286e-41 -9.7131e-41
-2.6014e-41 -3.7003e-41 -4.273e-42 3.2729e-41 5.4157e-41 -4.6146e-41 -7.0582e-41 -4.2063e-41
7.002e-41 6.6758e-41 4.54208e-40 7.7338e-41 -4.3515e-41 -4.0946e-41 7.4119e-41 -6.0309e-41
8.7741e-41 4.1864e-41 -5.5354e-41 -1.2438707e-34 -1.426581e-34 1.6840675e-31 4.4058147e-38 2.535728e-39
1.9133889e-33 -2.959837e-39 7.725953e-39 -1.4972242e-34 -7.825813e-09 -3.78658e-08 -1.8589363e-08 -2.1361272e-08
-9.398134e-08 -5.772313e-08 -1.1881367e-08 -4.2986745e-08 -2.2823961e-08 -5.6356548e-08 -2.3381764e-07 -1.4299127e-07
-1.3899276e-07 -5.2922854e-07 -3.7513362e-07 -9.126421e-08 -2.9881525e-07 -1.6868242e-07 -7.188139e-26 -3.199839e-27
-2.8913442e-29 -1.8309882e-28 8.201377e-32 2.828228e-34 -5.109515e-32 7.078226e-33 8.146551e-33 -1.5087711e-30
1.0260881e-33 9.83394e-34 -1.98332e-33 1.41048515e-36 -8.800134e-36 -3.6083475e-34 -9.9839435e-37 -8.9366286e-35
-5.6700196e-14 -1.2858551e-12 -2.1656354e-13 -4.5920104e-13 -8.453517e-12 -2.2038747e-12 -1.2349087e-13 -1.4663925e-12
-2.865972e-13 -2.94826e-40 1.4116e-40 1.82715e-40 7.1675e-41 3.4316e-41 5.1988e-41 -7.9442e-41
5.41e-43 9.1698e-41 5.112e-42 9.931e-42 4.3508e-41 1.5517e-41 2.2857e-41 -3.2513e-41
-2.4727e-41 7.6427e-41 -4.5898e-41 7.1351e-41 -6.8372e-41 -2.7889e-41 7.9639e-41 -4.941e-41
3.4653e-41 9.8542e-41 -5.1313e-41 -7.88e-41 -8.801046e-17 -4.3101606e-15 -1.0655492e-15 -8.783556e-16

base.9.bias f4 [128]
00000000: e3f6 7ab1 ad1e 28bd 1378 333c b680 b63b
00000010: 6760 78bd 6a9e 70bb c2ce 0199 fba6 2b3d
00000020: 3ccd 68bb 9ba0 473d c69a e43c b156 1bbc
00000030: d63e ab3b 02c7 793d 25d0 433d eef4 a1b3
00000040: 9e6c aebb 9caf b9b5 dcc6 203d 98a1 86bb
00000050: 45d2 bfbb 7650 333d 6c65 8cbc b0fb c339
00000060: 6acd 3a98 a340 033d 8e0e 4c3d cc4e 663d
00000070: db62 39bc 5000 07bc 4f20 2cad f571 28bc
00000080: 833a b53d c946 8bad e9c9 2d3d 6599 a9ae
00000090: 2800 1ebd 21bb 7a3d 7036 6aba f7fc 98b3
000000a0: f2b0 c2bc bd47 90ba d675 aaba 0ce1 9ebb
000000b0: 15c3 9a3d abae faba 68fd bc38 baa2 b53d
000000c0: 7fdc 093c 7d6b 673b 333b 583d 303f beb6
000000d0: f6f8 3cb9 4a77 44bc b7f6 8db5 cc19 e9ba
000000e0: 1408 9eb5 7eca e2a0 5892 493c ccc4 17af
000000f0: 20bc f6bb 1a05 2eba 3360 743d d789 573d
00000100: 931c 04bd d75d 56b2 cb8e 933c 712f 27bb
00000110: 743d 3c3e 3781 b03c f98e 7eb7 fc7e 1fbc
00000120: 565a 6c3c 5aa6 00bc 2da1 703d 00bc 653c
00000130: 8465 013d 7fed 98ba 045c 9e39 03d2 2f3b
00000140: 0fbd b239 22dd dcbb 7fa0 97b6 460f 9796
00000150: b658 083b a787 1b3c 17d2 c939 5d58 2dba
00000160: e9d3 c93c 58fb 0a3d 84d6 1cb9 190a 203d
00000170: 4079 b53b f87e d2bb d830 36b7 f82e 31b8
00000180: 52a8 2ca5 0de1 26b0 95b5 fa3c 2bb7 863d
00000190: 4d5c d83c 5892 e8ba 6057 f13b 3589 f43c
000001a0: 5fb2 233d 3130 3ebb 3fc9 b0b9 ffad 6c3d
000001b0: a7a0 32ba 77c6 083d cbc0 cabb 3b7f 133e
000001c0: 8082 89b5 c1ef 90bb 2ee3 7bb9 1973 363d
000001d0: 5264 f6b9 0e99 a13c 21e9 433d cc79 733b
000001e0: e032 043d 5e20 73b5 996e cbbc 6163 053d
000001f0: 559e 7abd 7830 3a3d e82a d83b ad7a c2ba
-3.6520127e-09 -0.04104488 0.010953921 0.0055695428 -0.06063881 -0.0036715516 -6.710898e-24 0.04190729
-0.003552272 0.04873715 0.027905833 -0.009481118 0.0052259965 0.060980804 0.047805924 -7.541699e-08
-0.005323007 -1.3834683e-06 0.039252147 -0.004108619 -0.0058539235 0.043777905 -0.017138205 0.0003738082
-2.4143644e-24 0.032044064 0.049818568 0.05622749 -0.011315073 -0.008239821 -9.784242e-12 -0.010281076
0.08849051 -1.5833905e-11 0.042428885 -7.7124786e-11 -0.038574368 0.061213616 -0.00089345034 -7.1240656e-08
-0.023766015 -0.0011007708 -0.0013005089 -0.004848605 0.0755674 -0.0019125541 9.011739e-05 0.08868928
0.008414387 0.003531187 0.05279083 -5.6697972e-06 -0.00018021822 -0.011991331 -1.0577122e-06 -0.0017784177
-1.1774268e-06 -3.8419887e-19 0.0123029575 -1.3803286e-10 -0.0075297505 -0.00066383334 0.059662055 0.05262169
-0.032253813 -1.2477776e-08 0.018012425 -0.0025510455 0.18382818 0.02154599 -1.5172868e-05 -0.009734865
0.014425835 -0.007852161 0.05874746 0.0140218735 0.031590953 -0.0011667459 0.00030204665 0.0026828058
0.00034091665 -0.0067402283 -4.518835e-06 -2.4405005e-25 0.002080483 0.009492791 0.00038494237 -0.00066125934
0.02463718 0.033931106 -0.00014957233 0.03907213 0.0055381358 -0.0064238273 -1.0859418e-05 -4.224383e-05
-1.4975651e-16 -6.0710265e-10 0.030604163 0.06577905 0.0264112 -0.0017743809 0.0073651522 0.029850582
0.03996503 -0.0029020424 -0.00033719276 0.057783123 -0.00068141 0.033392396 -0.0061875335 0.14404003
-1.0245276e-06 -0.004423112 -0.00024021856 0.04454336 -0.0004699552 0.019726302 0.04782975 0.0037151454
0.03227508 -9.0571655e-07 -0.02483301 0.03256548 -0.061186153 0.04545638 0.0065969117 -0.0014837586

fc.weight f4 [4, 128]
00000000: cc54 15bb 5c42 db3d d4cb a4bd d09d 8bbc
00000010: 1051 0b3e 2824 a83a 2ff2 0000 b2a7 bf3d
00000020: fc47 c1bc dbdf 0bbd f35f b73d 8ae5 fd3c
00000030: dbcb b23d eae1 ffbe 235c 933d fc51 833b
00000040: 92dd ee3d 8c82 0f3c 3abc 35be 6802 30bc
00000050: bfba 26bd 3245 cfbd 8f82 5338 fbff 63b9
00000060: 88c7 f0a1 a315 623c 3da2 503c e7fc 90bd
00000070: ea70 6d2a 8573 e735 8859 0180 44f0 d7bd
00000080: 278f 903d 833e ddba d089 24bd dfd2 0080
00000090: 8bd8 9c3d 58e9 03be 567e 6bbe 41e1 6abc
000000a0: 7ec3 833e 0600 0080 b7b6 f2ba c04b 2ebd
000000b0: a78a 823d f39d b0b6 0d7a 573c 4677 c9bd
000000c0: 7ccd 3dbc 29aa c13a 1e9d df3c ea88 ce3c
000000d0: 5cc0 b99c 006f ee3c ba51 1380 efcc 19bc
000000e0: af67 cd39 4a46 0000 a992 93bd 9f12 213c
000000f0: 6fdb 603c 5554 84ba 7f18 aabd f715 7c3d
00000100: 7dd9 603e 957c 4d9c ffbd 91bd 3a80 1d3c
00000110: f305 c83d 5c6e a3bd aad4 4c3c fbc1 e1af
00000120: 3311 89bd 7f8f 8a3a 1b43 bfbd 7836 7c3b
00000130: eca8 4dbd d191 bfb8 873f e7bd 2635 16bc
00000140: 41cb 5f3c da6a 4ebd ba95 23b8 7b50 f938
00000150: bf4d 80bc c548 813e 4935 faba f40f d1bc
00000160: bcf4 4a3b c60a 793d b9d2 8939 c423 9cbd
00000170: 7fa0 c9bd cbf3 813d 0800 b0bb db88 9bba
00000180: 16cb 00bb 230d 0000 14b2 dabd 0a43 713e
00000190: 51af 22ba e905 d2a4 6d1b e1bb a24b e43b
000001a0: 2e7b f6bd 5d25 d03c ab62 18bc 39b4 b03c
000001b0: ab4b 76bb f5cc 34be 6feb 33bd 437f 933d
000001c0: 31ce 38ba 9860 e538 f8f4 9abb 0fa1 8bbc
000001d0: 0a5c 74bb e1d8 143d 0bf7 acbe d8fc 15bd
000001e0: cdb7 1838 5468 46b9 dec8 edbc 7d59 fabd
000001f0: 4591 fd3d 8e5a c3be 2299 a0bc 14a8 40bc
00000200: 660f 88bb 675b 67bd 188d 083e 5892 e6bc
00000210: 922f bfbd 7394 a8ba 7ba8 7900 2f5e 353d
00000220: ee12 1a3d bc13 0d3e e6e0 02bd eff1 d63d
00000230: 09c1 8e3d a488 103f 88b6 9e3d 509d 043c
00000240: 1387 a0bd 85c0 20bc 8772 a53e 2fb6 3dbc
00000250: f09a 3e3c b995 123e 26e7 44bc c9bb 84bb
00000260: 8766 0080 6c3c 093e 2d30 b5bc 4de8 123e
00000270: f801 b9b9 32a3 aebb 21ba 0080 1223 bb3d
00000280: 82eb 8d3d c2b2 773b f875 da3d 8a8a 0b08
00000290: f52a 79bc 8fec e63d 5a63 4e3e c748 723c
000002a0: 1927 81be 23cb 6fb0 69a0 48bc 0bda a83c
000002b0: 08de 9a3d b553 f1bb 2ecc 673c 675d 4b3c
000002c0: e464 6fbc 05da 99ba e5a2 e23c 3b16 e53c
000002d0: 3417 46ae d31e 303d 4a89 26b3 3396 c0bc
000002e0: 7516 77b9 fafb 3f22 cb6c bb3d d372 1ebc
000002f0: b435 66bc c770 5e39 2861 113e bbe9 793d
00000300: 46e6 60be 7aa9 f638 a3f9 a73d e38d c73b
00000310: 0ffa c43d 75d4 a63d 2d9f b73b 0ec6 94ba
00000320: 144d ab3d 6aef 843b 4b92 163e 41c9 603d
00000330: c95c 043e 793a 0cba 3196 573d 47dc 063e
00000340: 006a 4d3c 92e8 ea3d 1a5a 42b8 e93f be39
00000350: bd86 30bb f536 81be c03d 073c 3500 1db8
00000360: 3be9 bf3d bbef b83d cb19 29bc 6dd4 033e
00000370: ff5e 193e 9e8c 20bd 3f5f 26bc a50b b33a
00000380: 3931 e23a 68de b99a af74 043e b305 7cbe
00000390: e2ed c9bc e58c cab3 7ca2 99bc ed00 1e3b
000003a0: bb45 0a3e 8a29 8cbc e3ba 933c 92bc a63c
000003b0: 1740 f23d 31e1 083e 71c9 243c 43ba 8a3d
000003c0: 82f7 c3b9 6c81 593c 93a1 8eb9 a0d6 143e
000003d0: a906 eebb 47fd 043c a01d b53e d681 173d
000003e0: 020c 043e 6861 ffb8 6911 cf3c d49a 133e
000003f0: c6d0 d5bd 7be7 ad3e f13f 6cbc ba53 8abb
-0.0022786139 0.107060164 -0.0804669 -0.017043024 0.13605142 0.0012828158 8.6879e-41 0.09358157
-0.023593895 -0.034149032 0.08953848 0.030993242 0.087302886 -0.49977046 0.07195308 0.004007576
0.11663355 0.008759152 -0.17747584 -0.010742761 -0.04070544 -0.1012062 5.0427912e-05 -0.00021743767
-1.6315848e-18 0.013799104 0.012733993 -0.07079487 2.1089003e-13 1.7244462e-06 -1.23953e-40 -0.10543874
0.07058554 -0.0016879592 -0.04017049 -7.5646e-41 0.0765849 -0.12881982 -0.22997412 -0.014335931
0.25735086 -8e-45 -0.0018517588 -0.04255271 0.06374102 -5.2635964e-06 0.013151658 -0.09837203
-0.011584636 0.0014775443 0.027296599 0.02521177 -1.2291997e-21 0.029105663 -1.774192e-39 -0.009387239
0.00039177897 2.5215e-41 -0.072057076 0.0098311 0.013724192 -0.0010095934 -0.083054535 0.061544385
0.21957965 -6.798983e-22 -0.07116317 0.009613091 0.0976676 -0.07980034 0.012501875 -4.1065093e-10
-0.066927336 0.001057133 -0.09338971 0.0038484614 -0.050209925 -9.13475e-05 -0.11291414 -0.009167945
0.013659299 -0.05039487 -3.9001672e-05 0.00011888236 -0.015662072 0.2525083 -0.0019089367 -0.025520302
0.0030968627 0.06080129 0.00026287677 -0.07624009 -0.09845065 0.06345328 -0.0053710975 -0.0011866348
-0.0019652299 4.713e-42 -0.10678497 0.2356073 -0.0006205934 -9.1082995e-17 -0.0068697245 0.006967024
-0.120352134 0.025408441 -0.009300868 0.021570312 -0.0037581723 -0.1765631 -0.0439257 0.072020076
-0.0007049768 0.00010937563 -0.0047289096 -0.017044572 -0.0037286305 0.036339644 -0.3378223 -0.036618084
3.6410802e-05 -0.00018921617 -0.029026445 -0.122241 0.123812236 -0.38155025 -0.01960427 -0.011758823
-0.0041522263 -0.056483652 0.13335073 -0.028145954 -0.09335245 -0.0012861624 1.1172534e-38 0.044279274
0.03761571 0.1377706 -0.03195276 0.10495364 0.06970412 0.564585 0.07749659 0.008094147
-0.07838263 -0.009811525 0.3231394 -0.0115790805 0.01163362 0.14314927 -0.012018001 -0.004050706
-3.678e-41 0.13401955 -0.022117699 0.14346428 -0.00035287417 -0.005329513 -6.677e-41 0.091375485
0.06929685 0.0037795757 0.10667032 4.1991643e-34 -0.015207996 0.11275589 0.20155087 0.014787859
-0.25225142 -8.723637e-10 -0.012245276 0.020611783 0.0756188 -0.007364715 0.014147801 0.012412406
-0.014611457 -0.0011737949 0.027665565 0.027964702 -4.5040596e-11 0.042998146 -3.877475e-08 -0.02350912
-0.00023564122 2.6018722e-18 0.0915161 -0.009670931 -0.01405089 0.00021213583 0.14197218 0.06101392
-0.21962842 0.000117617616 0.08201911 0.0060899123 0.096180074 0.08145992 0.005603692 -0.0011350529
0.08364311 0.0040568607 0.14704244 0.05487943 0.1292602 -0.0005349289 0.052633468 0.13169967
0.012537479 0.114701405 -4.6337118e-05 0.0003628724 -0.002693578 -0.2523724 0.008254468 -3.743191e-05
0.09370657 0.090301 -0.010321091 0.12874003 0.14977644 -0.039196603 -0.010154544 0.0013660087
0.0017257101 -7.6873523e-23 0.12935136 -0.24611549 -0.024649564 -9.4319866e-08 -0.018754236 0.0024109439
0.13503163 -0.017109651 0.01803345 0.02035359 0.118286304 0.13367154 0.010057793 0.06773808
-0.00037377706 0.0132754855 -0.00027204733 0.14534998 -0.0072639775 0.008117027 0.35374165 0.036989056
0.12895206 -0.00012177491 0.025276856 0.14414531 -0.10440211 0.33965668 -0.014419542 -0.0042214068

fc.bias f4 [4]
00000000: 742b d2bc ea66 fc3d 054b 3fbc db67 e6bd
-0.025655486 0.12324317 -0.011675601 -0.112502776

conv.weight f4 [4, 128, 1, 1]
00000000: cf4a 6eba 1a7e 75bd 117c 3bbd 242b 75bd
00000010: 1de7 e33c 33ed c4bc 6d17 a73d ccd5 663d
00000020: 7f32 17bb a507 1a3d 397a 883d 717f 59bc
00000030: 55cd 383b c1a2 b3bd c79a 9a3c c4a6 873d
00000040: ae91 e03c c0ed 123c cea6 433d 3330 66bd
00000050: 56a9 8abc 7a0b b33c 0bf9 293d ff7a 673d
00000060: 1bf5 9f3d cf3c 31bd 3b9f b13d 0cf1 80bd
00000070: 0b59 41bd 68ea a1bd 6586 8fbc 7373 acbd
00000080: cae1 743b ca28 57bc e3dc eb3c 19c8 993d
00000090: f2a6 15bd 60a5 22bd bb6b 23bd 86cb 85bd
000000a0: c914 b13d 1b67 81bd 605f 6fbc 0dd8 383d
000000b0: db77 90bd 4e14 afbd c57f ef3c 6876 853c
000000c0: e357 a0bd cfce 17bd a1ab 4c3d 6901 7b3d
000000d0: fe5e 2f3d ba13 9c3d 2e46 a1bd 37f1 58bd
000000e0: d6f2 1e3d 149a 0c3c 2b44 09bd acc6 1c3a
000000f0: c82f 3c3d 2e16 a5bd d966 25bd c0eb 92bd
00000100: c669 4b3d 6aeb 2a3b 12b1 60bd f0c5 32bd
00000110: d1fb 7d3d 2bc8 a3bd 0545 bbbc 2024 833c
00000120: e806 8d3d c6f4 c1bb 709b 98bd bdce 48bd
00000130: d81e e0bc fedd 4bbd f9cf 5cbd d8f3 93bd
00000140: 0955 8abc 16df a7bd 367b 84bd ca20 d3bc
00000150: 3359 753d 26f0 793b 64bf 813d 0215 4bbc
00000160: d3ff 77bd 2432 93bc 6624 8a3c 4027 8ebd
00000170: f76a 193d a74d 893d 5c9d 01bd ba20 a4bc
00000180: f858 66bd db57 b2bd b3aa 9bbd 5484 653d
00000190: c08b ea3c 08ab b13c 37fc 9b3d aa2c a9bd
000001a0: d23f 8e3d c6c8 aebd 28f0 a6bd 8226 e93c
000001b0: bbc4 503d a703 d13b 4d39 7a3d 2ee7 9c3c
000001c0: 6964 973c 89b9 793d 1a6c 78bd 9566 23bc
000001d0: 4d83 8abd c34e 093d 02e2 2d3d 6b16 4ebd
000001e0: b657 3cbd abb9 663d 01b9 403c 899b 433c
000001f0: 9d74 4bbd 8574 173c 6c5c 703d e790 153d
00000200: 7303 503d 0a60 62bc d590 b8bc db54 023d
00000210: 2f49 4a3d 03ef 8d3c d526 163d bd37 89bb
00000220: 2603 8fbd 639f a4bc 704d 853c 9497 54bd
00000230: ba50 a33c 63ad 8fbd 41e9 fdbc 8591 5dbd
00000240: cef8 653d c07d a33d d107 cb3c 38ba bc3c
00000250: 926d 993b 52ee c53c 0069 dcbb 4a34 9a3d
00000260: 9757 703d 8e1f 20bd f752 a5bd af3a cf3b
00000270: 28e8 0e3d 3b7c 13bd a38c 5bbd 7a59 8fbd
00000280: 61bb a0bd ccf8 a33c 1522 89bc 3616 32bd
00000290: 05eb a5bd ba85 3a3d d318 a13d beed 4e3c
000002a0: 7d3d 503a 93d8 5fbd 1561 c0bc 8e78 dcbb
000002b0: 97bb 6e3d fd95 32bd b011 9fbd 86a4 203d
000002c0: e8e4 86bc 8430 82bd af95 a2bd cd70 9fbd
000002d0: eb06 4ebc 261d afbd 06d6 99bd f57b f1bc
000002e0: 4940 b0bd 4452 723d dd5f 4fbd 326d 13bd
000002f0: 00bc 84bd 13fa a33d 4e34 02bb 7201 8d3b
00000300: 96a0 273d 6cfd 043c e961 c63c ee97 74bd
00000310: 4b08 abbc b2f1 9cbd 6ca3 af3d 1d5b 55bd
00000320: e06b e4bc 0a98 80bd 8650 853d 4d62 93bd
00000330: f075 733d 142f 7a3b 817d 8dbd 5b09 ddbc
00000340: e05d 55bd 3706 cdbc 3e50 903d ee1f 4c3d
00000350: 40b7 913d 5627 9f3c 7237 a03d b5ab 003d
00000360: 0f90 7b3c 8492 90bd e294 5c3d bc47 93bd
00000370: 5bb9 9bbd 3049 b93c 9661 79bd 8cdb d4bc
00000380: e8f6 9b3d 479e fd3c a222 73bd 7da3 983d
00000390: 95dd dcbb 884d 993d 8493 253b 6fa7 47bd
000003a0: 352b 18bd e86b 8e3c 315b 85bd cb94 56bd
000003b0: c163 893c 7674 1ebc 6cc1 a53d 2a9d 6ebd
000003c0: 127d 353d 43d1 45bd 47bb 4b3d dddd d1bc
000003d0: 4526 55bd 0010 5f3c 2857 21bd 4b4d 573c
000003e0: 63ec 2abc 6ad7 f2ba 4859 98bd 7828 d93b
000003f0: 6302 b93c c52b 363d d3c8 32bd 95cf 153d
-0.0009090127 -0.059934713 -0.045772616 -0.059855595 0.027820164 -0.024038887 0.08158765 0.056356236
-0.002307087 0.037604947 0.06663937 -0.013275013 0.002819856 -0.08771277 0.018872632 0.06623605
0.027413215 0.008967817 0.0477665 -0.05619831 -0.016926449 0.021856058 0.04149727 0.056513783
0.07810422 -0.043270882 0.08672949 -0.06295976 -0.04720406 -0.079060376 -0.017520139 -0.08420458
0.0037366026 -0.013132283 0.02879185 0.07508869 -0.036536165 -0.039708495 -0.03989766 -0.0653296
0.086465426 -0.06318494 -0.0146101415 0.045127917 -0.070541106 -0.08548795 0.02923573 0.016291812
-0.07829263 -0.037062462 0.049968366 0.06128064 0.0428152 0.0762095 -0.07874714 -0.052964415
0.038805805 0.008581657 -0.033512276 0.0005980532 0.045944005 -0.08060871 -0.040381286 -0.07173872
0.04966142 0.002608026 -0.054856367 -0.0436458 0.06200773 -0.079971634 -0.02286006 0.016008437
0.06886083 -0.005919072 -0.07451522 -0.049025286 -0.027358457 -0.049772255 -0.053909276 -0.07224244
-0.016886251 -0.08196847 -0.06468813 -0.025772471 0.05989952 0.0038137524 0.06335333 -0.012395145
-0.060546707 -0.017968245 0.01686306 -0.0694108 0.037455525 0.06704264 -0.03164421 -0.020035136
-0.05623719 -0.08708163 -0.07600918 0.0560344 0.028631091 0.021688 0.076164655 -0.08260472
0.069457665 -0.08534388 -0.08151275 0.028460745 0.050968867 0.006378609 0.061089803 0.019153204
0.018480496 0.060967956 -0.06064997 -0.009973188 -0.06763325 0.03352238 0.042451866 -0.05031435
-0.045982085 0.05632941 0.011762858 0.011938938 -0.049671758 0.009244089 0.05868189 0.036515143
0.05078454 -0.013816843 -0.022529999 0.031819206 0.0493862 0.017325884 0.036658127 -0.0041875527
-0.069830224 -0.020095533 0.016272277 -0.05190237 0.019935954 -0.07015493 -0.030995013 -0.054093856
0.05614548 0.07982969 0.024784 0.023038015 0.0046822513 0.024161492 -0.006726384 0.075295046
0.058677282 -0.039092593 -0.08072465 0.0063241343 0.03488937 -0.036007147 -0.05360092 -0.06999488
-0.0784824 0.020016097 -0.016739884 -0.043478213 -0.08101467 0.045537688 0.07866063 0.012629924
0.0007943733 -0.0546499 -0.023483792 -0.0067282384 0.05828437 -0.04360007 -0.077670455 0.0392194
-0.016466573 -0.0635691 -0.07938706 -0.07785187 -0.012574892 -0.085504815 -0.07511525 -0.029478053
-0.086060114 0.059160486 -0.05062853 -0.03599281 -0.06481171 0.08006682 -0.0019867602 0.004303151
0.04092463 0.008117061 0.02421661 -0.059715204 -0.020877978 -0.07663287 0.08576092 -0.052088846
-0.02788347 -0.06278999 0.06509499 -0.07196484 0.059438646 0.0038175033 -0.069087036 -0.026982
-0.05209148 -0.025027378 0.07046555 0.049835138 0.0711503 0.019427937 0.07823075 0.031413753
0.01535417 -0.07059196 0.053852923 -0.071914166 -0.07603713 0.022617906 -0.06088408 -0.025983594
0.07615453 0.030959262 -0.0593592 0.07453058 -0.006740282 0.07485491 0.0025264928 -0.04874366
-0.03715058 0.017385438 -0.06511534 -0.052387994 0.0167712 -0.009671321 0.08093533 -0.058255352
0.04430873 -0.04829527 0.04973915 -0.025618488 -0.05203845 0.013614655 -0.03938976 0.013140987
-0.010432336 -0.0018527333 -0.07438904 0.0066271387 0.022584146 0.044475336 -0.043648552 0.03657492

conv.bias f4 [4]
00000000: c065 303d 4a6e 7e3d 5fb4 19bb d18f b33c
0.043065786 0.0621169 -0.0023453457 0.021919163
