server/predict/ml_model/model_param/model_states.pth (torch, 388071 bytes, 12 tensors)

base.0.weight f4 [8, 3, 3, 3]
000000 15 32 31 3e ea 92 27 bd d7 da 05 3e 0c 21 e6 3b
       0.17304261 -0.040911593 0.13071762 0.0070229825
000010 6a a1 bf 3d ab 87 a1 3d 02 c0 3d 3e 3d 35 98 3d
       0.09356959 0.07887205 0.18530276 0.074320294
000020 db bd f9 3d 0b 9f 51 3b af d2 8e bd e4 95 22 3d
       0.12194415 0.0031985666 -0.069737785 0.039693728
000030 52 a9 0f be b0 eb 6a 3d b5 40 3a 3e 78 0c 09 be
       -0.14029434 0.057353675 0.18188746 -0.13383663
000040 53 25 51 bd 45 5c 2e be 27 ab 01 bd 61 60 48 be
       -0.051060986 -0.17027386 -0.031657364 -0.19568016
000050 37 49 d6 3b 02 3b 36 be be ce 9c bd 29 c5 0a bc
       0.0065394896 -0.17795947 -0.076566204 -0.008469858
000060 a1 d4 e6 bd 03 0e 01 3e b6 7f b5 3c f1 3e 3b be
       -0.112710245 0.12603001 0.022155624 -0.18285729
000070 19 1e 44 3e 90 b0 e3 bd a7 6b ae 3c ce 01 2d 3d
       0.19152106 -0.11117661 0.021291567 0.04223805
000080 8c 51 2d 3e 56 06 fc 3d 6d 90 4f 3e 4d 44 e3 bd
       0.16925639 0.12305896 0.20269938 -0.11097012
000090 13 a8 6f be 92 b1 26 3e d4 2e 07 3d d6 65 be bd
       -0.23403959 0.16278675 0.033003643 -0.092967674
0000a0 59 6d 37 3e 9c e6 a1 3d 58 61 e9 bd 8e be 75 3d
       0.17912807 0.079053134 -0.1139552 0.05999618
0000b0 8c 97 4c bd fb a8 0a bd fd 6b 9d bc f0 7f bd bd
       -0.049949214 -0.03385256 -0.019216532 -0.09252918
0000c0 df 43 bb bd 8c 90 6b bd 39 7a 44 bc 9b 74 04 be
       -0.09143805 -0.057510898 -0.011992031 -0.12935106
0000d0 03 0c b6 3d f7 69 1c bc 06 37 67 bd 90 d4 1e be
       0.0888901 -0.009546748 -0.05644896 -0.15510774
0000e0 0a 16 2e 3e 60 6f fe 3d 1c 95 d1 3d e8 ee 3b 3e
       0.17000595 0.12423587 0.102335185 0.18352854
0000f0 ca a5 28 3d c4 90 3b 3c c3 e1 6e 3d e4 3d 7e bd
       0.041173734 0.011448089 0.058320772 -0.062070742
000100 a2 0e de 3d b7 2a d1 3d 76 8f d9 bd 77 1f 07 be
       0.10842635 0.10213225 -0.10623066 -0.13195597
000110 e5 19 7a 3d f9 89 ba 3b 77 8a 2e be d2 cf 76 bd
       0.06105985 0.005692717 -0.17045008 -0.060256787
000120 f5 ff 14 be 57 7a 0a be 4b 64 14 3e e1 14 24 be
       -0.14550765 -0.13523231 0.14491384 -0.1602359
000130 8f db 97 3d d5 36 2f 3e 55 58 24 3e 16 a0 14 3e
       0.07414924 0.1711076 0.16049321 0.14514193
000140 a7 33 b6 3d 6c 17 f0 3d 96 63 3c be bd f1 5f 3d
       0.08896571 0.11723217 -0.18397364 0.0546739
000150 c7 80 27 3d 4d 51 22 3e 9c 30 9a 3d 31 f1 04 3e
       0.040894296 0.15851326 0.07528803 0.12982632
000160 fa e4 15 be c1 6f 4b 3d 7d fc c9 bc 01 a2 48 bd
       -0.14638129 0.049667124 -0.024656529 -0.048982624
000170 9b f8 42 3e 02 d1 09 be 63 5f 27 be 8f a1 1c be
       0.19040148 -0.13458636 -0.16344981 -0.15296005
000180 c9 58 34 bd 9d 0d bb 3d d7 3a c4 bd e5 03 a5 bd
       -0.044029985 0.09133456 -0.09581535 -0.080573834
000190 0e d6 ec 3d 14 1d b7 bd 6c 0a 5c 3d c1 cd 63 3d
       0.11564265 -0.08941093 0.053720877 0.055616144
0001a0 bb 4c c5 3d 9f a7 b1 3c d7 d4 97 3d ca 1d d8 3d
       0.09633776 0.021686373 0.07413643 0.10552557
0001b0 e6 11 d1 bb ab f2 91 bc db 25 1c be 0a 93 3c 3e
       -0.0063803075 -0.017815908 -0.15248816 0.18415466
0001c0 90 5b 28 be 01 6f a0 3d 67 01 ea 3d 86 db 05 3e
       -0.16441178 0.07833672 0.11426049 0.13072023
0001d0 8a bd f4 bc 43 c9 8d bd 22 20 2b 3e fd 45 fd bd
       -0.029875536 -0.06923153 0.16711476 -0.12366865
0001e0 dc e5 6d bc cf b8 90 bd a0 ad 16 be 31 0c 2d be
       -0.014520135 -0.070664994 -0.1471467 -0.16899182
0001f0 c0 76 b9 bd 25 fc 0e be df c6 9b 3d 40 4b d6 bd
       -0.09055853 -0.13963373 0.07606291 -0.104635715
000200 96 27 f1 bd fe 34 25 be 62 91 38 3d f6 b4 b3 3d
       -0.117751285 -0.16133496 0.045060523 0.0877475
000210 8f 04 16 3e d5 ef f8 3c 41 f7 94 3d b5 cb ef 3d
       0.14650176 0.030387798 0.072737224 0.11708776
000220 c2 3f f2 3d 23 c7 2f be 5d fe 00 be 6f 29 1d 3e
       0.11828567 -0.17165808 -0.12597032 0.15347837
000230 76 eb 42 3b 59 b5 14 3d 72 c9 ea bd bc 33 36 3e
       0.0029742396 0.03630576 -0.11464204 0.17793173
000240 e9 00 ae bd b1 98 21 bd 4d 4f c2 3c f6 25 8a bd
       -0.08496267 -0.03945226 0.023719454 -0.06745522
000250 b4 dd 3c bd 3d 77 b3 bd 2c 69 fe 3d b7 70 a8 bd
       -0.04610987 -0.08762977 0.12422404 -0.08224624
000260 1d 7c 27 bd 94 47 14 be 88 0b 81 3c 36 c4 35 be
       -0.040889848 -0.1448043 0.015752569 -0.1775063
000270 a8 ef ed bc 8b 35 80 3d 92 ee 9f bd 98 31 d1 bd
       -0.029044941 0.062602125 -0.078091756 -0.102145374
000280 7f a6 3f be 3b 5f 23 be 22 76 32 3e 2a 34 e8 3b
       -0.18715857 -0.15954296 0.17427877 0.0070862966
000290 92 5a c5 bc 59 0a 83 bd 9b 0b cf 3d da 8a 26 3e
       -0.024091039 -0.06398458 0.101096354 0.16263905
0002a0 45 59 06 3e 7f f5 05 bc 50 45 84 bc 0f f8 c2 3d
       0.13119991 -0.008176207 -0.016146332 0.0951997
0002b0 79 00 0b bd 82 8d d5 bb 31 47 a4 bd 10 d0 24 3d
       -0.033935998 -0.006517113 -0.08021391 0.040237486
0002c0 2e da b0 bd 36 71 b9 bd 66 ca 0f 3d 99 d7 94 bd
       -0.086353645 -0.090547964 0.03510513 -0.072676845
0002d0 f9 12 ad bd 7a 52 3e be 85 36 e6 3d 4f 79 a5 bd
       -0.08450884 -0.1858615 0.112408675 -0.080797784
0002e0 5b 76 e8 3c 23 9f a3 3d 3b ba 1f 3d 5c 08 e8 3d
       0.028376749 0.07989337 0.038995963 0.113297194
0002f0 d6 24 f9 3d a1 aa 2b be a3 db c7 3c 08 d1 3a 3e
       0.12165229 -0.16764309 0.024396723 0.18243802
000300 76 6b 2f 3e 9e b4 1d be 08 ac bc bd 6d fd c6 3d
       0.17130837 -0.15400931 -0.092125 0.09716306
000310 89 eb 3b 3e b3 e8 b1 3d e8 00 2e be c3 47 a2 3c
       0.18351568 0.08686962 -0.16992533 0.01980961
000320 69 36 1e 3e cb 4d 15 3e 14 0b 85 bd 76 4a 75 bd
       0.15450443 0.14580457 -0.064962536 -0.059885465
000330 0f 67 fa 3c 2d 3a fb 3d a9 6a 0e 3e 8d 98 fa 3d
       0.03056672 0.122669555 0.13907875 0.12236128
000340 ed 76 10 3d cb 90 f1 bd 60 55 39 3e 5c 6e 3a be
       0.035269666 -0.11795195 0.18098974 -0.18206161
000350 4f 2a 8b 3c b1 05 ff bd cd e0 5f 3b 6e af f9 bd
       0.016987948 -0.124522574 0.0034161091 -0.12191664

base.0.bias f4 [8]
000000 a6 c0 29 be 42 b4 60 be 3b 82 23 be fe 70 3a 3e
       -0.16577396 -0.21943763 -0.15967648 0.18207166
000010 24 fe 3f bd e2 6d d5 bd a4 b0 16 be a8 24 45 be
       -0.046873227 -0.10421349 -0.1471582 -0.19252264

base.3.weight f4 [32, 8, 3, 3]
000000 40 85 99 38 e6 ae 44 bc ff 4a 10 3d f1 7d 02 3e
       7.320428e-05 -0.01200459 0.03522777 0.12743355
000010 88 60 24 3d 82 e7 41 bd 2c a8 ac 3b fa cc 7c 3d
       0.040131122 -0.047339924 0.005269071 0.06171892
000020 db 41 8d 3d 0d 50 c1 3d d8 13 43 3c bd 05 54 3d
       0.068973266 0.094390966 0.011906587 0.051763285
000030 ea b6 1c 3e 79 01 bd 3d e8 b7 f1 3c 48 bb 3d 3e
       0.15304151 0.092287965 0.029506639 0.18528473
000040 a3 d8 14 3e 24 fe df bc 00 1e b5 bd 25 f7 1e 3d
       0.14535765 -0.027342863 -0.08843613 0.038809914
000050 fa dd ed bd 63 e1 ad bd 5e 8a 56 3d aa c7 49 3d
       -0.11614604 -0.08490255 0.05237805 0.04926268
000060 d1 5f 96 bd 3c 07 ee bd fe 7f fc bd 2e c3 ec 3d
       -0.07342494 -0.116224736 -0.123291 0.11560665
000070 a5 ff 83 3d 11 91 b4 3a 2a 16 d7 bd 81 81 66 3d
       0.06445245 0.0013776143 -0.10502274 0.05627585
000080 ca 74 2e bd 3a 6c a3 3d 33 16 fd 3c 64 c8 94 3d
       -0.042591847 0.07979627 0.030894374 0.07264784
000090 e3 46 85 bc 85 dc 9d 3b e6 2c f2 3c 86 d7 62 bd
       -0.016269153 0.0048175477 0.029562425 -0.05538132
0000a0 be c8 59 3d 91 30 a9 bd e8 a0 b4 3c ae 76 87 3d
       0.05316996 -0.082612164 0.022049382 0.06614433
0000b0 4f 30 d0 bd 93 b7 86 bd 33 a0 8a bd 80 94 0b be
       -0.10165464 -0.06577983 -0.06768837 -0.13630867
0000c0 f3 0f 6d bd 65 2b bf 3d 3e 69 97 3b 42 82 28 3d
       -0.05787654 0.09334449 0.0046207 0.04113985
0000d0 d5 65 c4 3d ca 87 18 3d 90 c7 2d 3d 81 9b 2d bd
       0.095897354 0.037238874 0.042426646 -0.04238463
0000e0 d8 e8 06 be f2 2f c9 bc 5c 51 47 3d 2c 4b 8f 3d
       -0.1317476 -0.024558995 0.048661575 0.0699676
0000f0 47 60 a4 3d 1c d5 77 3d f9 31 90 bd 4c 41 b4 bd
       0.08026176 0.06050597 -0.070407815 -0.08801517
000100 69 39 2a bd 02 1f 8c 3c 42 98 0e 3d 66 67 c2 bd
       -0.041558657 0.01710463 0.034813173 -0.09492378
000110 75 c7 94 3c ac 2e 5e bd c9 b5 12 bd 33 9b 0c bd
       0.018161515 -0.05424373 -0.035817895 -0.034327697
000120 b3 85 c1 3d 74 13 5a 3d 66 24 3e 3e f0 1c 99 bc
       0.09449329 0.05324121 0.18568572 -0.018690556
000130 2f 9f 14 3d 86 f0 45 bc b3 ba c9 3d fb e4 a6 3d
       0.03628462 -0.012081271 0.09850063 0.08149143
000140 dc 49 15 3e 66 86 f8 3c b3 4a 4b 3e 0f b7 1c 3e
       0.14578956 0.030337524 0.19852714 0.15304206
000150 09 3c 10 3e e5 fc 77 3e 53 34 47 3e 0b f6 11 3e
       0.14085402 0.24217565 0.19453554 0.14254014
000160 6f 29 6b 3e 95 15 3b 3e d8 00 7b 3d 21 6a 88 bd
       0.22965024 0.18269952 0.0612801 -0.066608675
000170 a7 ad 08 bd 69 12 b6 bd 37 ad 12 3d 4a 91 17 bd
       -0.033368733 -0.0889023 0.03580972 -0.037003793
000180 73 f0 33 bd d1 db c5 3d 67 8c fc 3d a4 39 01 3d
       -0.043930482 0.09661067 0.12331467 0.03154911
000190 99 68 79 3c 76 df 3a 3d b4 e7 12 be ce de 12 3d
       0.015222692 0.045623265 -0.143462 0.035857014
0001a0 20 0c 4b bd d2 a6 f8 bd 64 a3 9a bc cf ec 21 bd
       -0.04957211 -0.121411934 -0.018876739 -0.03953248
0001b0 d6 3e 8c 3d 4d ad b3 bd f3 da 92 3b b2 45 ea 3c
       0.068479225 -0.08773289 0.004481667 0.028597686
0001c0 db 31 ce bd b2 9d ab bc de 9f 02 3e 9e 37 0d 3d
       -0.10068103 -0.020949218 0.12756297 0.03447687
0001d0 3c 63 dd 3d b4 e8 4a bd 6d 60 83 bd 76 05 ce 3d
       0.10809943 -0.04953833 -0.06414876 0.10059635
0001e0 db 7d eb 3d 5d 04 26 bd 9f e1 e5 bc fe fb c4 3c
       0.114986144 -0.040531505 -0.028061686 0.02404594
0001f0 79 eb a3 bd 09 03 21 bd 1d d6 17 bc a6 14 c5 bd
       -0.08003897 -0.039309535 -0.009267357 -0.09623079
000200 5e c0 27 3d 02 a9 6d 3c c8 af cb 3c a2 4f f9 bc
       0.04095494 0.014505627 0.024864092 -0.03043348
000210 9e 1a 01 3d 8a 81 1d bb 21 2c bd 3c f3 f2 ab bd
       0.031519525 -0.002403351 0.023092331 -0.08395948
000220 34 91 6e 3d 2b f7 8f 3d b1 3e 0e bd 94 9b 48 bd
       0.058243945 0.070295654 -0.034727756 -0.048976496
000230 58 47 65 3d a8 25 fd 3c 04 1c 50 bd 23 07 52 3d
       0.05597624 0.030901745 -0.050807968 0.051276337
000240 20 53 ad 3c 03 e9 ac bc 09 d7 b5 bc 4f 77 a4 3c
       0.021157801 -0.021107202 -0.022197263 0.020076422
000250 49 e6 6b 3c 56 6d 88 bc a0 c6 26 bb d9 f6 ba 3c
       0.014398166 -0.016653698 -0.002544798 0.022822784
000260 2e 97 0c 3c d4 87 e5 3c 0d a6 d5 38 80 3a 9e ba
       0.008580966 0.02801887 0.00010187561 -0.0012071878
000270 71 fa a2 3c 04 aa 89 3c da bc 9c 3b 90 fc 3f 3b
       0.01989481 0.016804703 0.004783255 0.0029294826
000280 89 a8 e3 3c 33 ae 83 3c f3 d6 86 ba 57 e3 e6 bc
       0.027790325 0.016074276 -0.0010287449 -0.028184576
000290 de bd 2d bd ad 1e a4 bc 78 e1 a6 3c a7 2d 57 bd
       -0.0424174 -0.020034159 0.020371184 -0.05253377
0002a0 60 c7 d4 bb 2a 81 34 3b 5e b6 c2 bc 30 1a 17 bc
       -0.006493494 0.0027542808 -0.0237686 -0.009222552
0002b0 4d fc a3 3c e8 59 a8 bc 46 bc 98 b9 fc 10 0f 3c
       0.020017767 -0.020550683 -0.00029131974 0.008732077
0002c0 65 94 c5 bc 57 a3 5a bd a1 f5 82 bd f4 90 56 bc
       -0.024118612 -0.05337843 -0.06394506 -0.013096083
0002d0 28 17 a7 3d b6 e2 61 bc 4a f9 0d 3c eb b8 a2 bb
       0.081587136 -0.013786962 0.008665392 -0.0049658916
0002e0 64 59 19 bd aa f5 8f 3d ed 2c a3 bc 62 f6 21 3c
       -0.037438765 0.070292786 -0.019918883 0.009885402
0002f0 73 14 c1 bd 67 b5 e0 bd 03 13 da 3c 1e 05 c1 3d
       -0.094277285 -0.109721 0.026620394 0.09424804
000300 43 b5 e2 bd b8 73 52 3d d6 d6 3c bd 13 27 bf 3d
       -0.11069729 0.05137989 -0.04610332 0.09333625
000310 fc d1 9a bd 43 44 d3 bc 5f e9 98 3a ad 40 62 bb
       -0.075595826 -0.025789386 0.001166623 -0.0034523413
000320 ef 00 f4 bc 7a b8 01 3b f0 77 24 3b cf e6 aa bb
       -0.029785601 0.0019793794 0.0025095902 -0.005215503
000330 76 4e 13 bd a6 5d 46 bc ab 18 ce bb 17 d5 c5 bb
       -0.035963498 -0.012107288 -0.0062895617 -0.006037365
000340 22 9a 1d 3d af 5a 90 3c 10 0d 19 bd 56 c7 e7 3c
       0.03847707 0.017621366 -0.037365973 0.028293293
000350 1f b0 b5 3c c0 e9 30 bd 63 46 83 bc cc 42 63 ba
       0.022178708 -0.04319167 -0.016024774 -0.00086693163
000360 bd 8f 82 3d 65 33 0c 3e ea c1 95 bd 2e 5c da 3d
       0.06375072 0.1369148 -0.07312377 0.10662113
000370 cb ea 0a 3d 12 8a fb 3d 86 a1 02 3d 84 ff 01 3e
       0.033915322 0.12282194 0.031892322 0.12695128
000380 90 67 a2 bd 93 d9 56 3c 5a 00 90 3d c9 ef b2 3d
       -0.07929909 0.013113397 0.07031317 0.08737142
000390 06 c8 0e 3b 0b 2f 14 3e 5f 83 97 bc 09 0a 91 3c
       0.0021786704 0.1447107 -0.01849526 0.01770498
0003a0 d8 79 3e bc e5 d2 16 3d 80 88 67 3a eb 97 9c 3d
       -0.0116257295 0.03682222 0.0008832291 0.076461636
0003b0 93 39 84 3d b2 54 09 3d 51 6e a5 3d 3b f6 df 3b
       0.06456294 0.033528037 0.08077682 0.006834773
0003c0 69 02 d6 bd 22 d1 71 bd 99 33 64 3d e5 22 ad bd
       -0.104496785 -0.059037335 0.05571327 -0.08453921
0003d0 57 27 f2 bb 88 1d 03 bc 22 4e 86 3d 3c cf 78 bd
       -0.0073899436 -0.008002646 0.065578714 -0.06074451
0003e0 b2 81 ba 3d 0a 61 10 bd 34 7a 06 bd 49 3c 41 bd
       0.09106769 -0.035248794 -0.032831386 -0.047176633
0003f0 d6 1b 35 3c fb d3 a8 3c 85 af f5 bb d1 e2 6d bd
       0.011054 0.020608893 -0.00749773 -0.058077637

base.3.bias f4 [32]
000000 f4 98 18 3e 4d 4e 69 bd ce 2a ac bd d6 8e b0 3d
       0.14902097 -0.05695944 -0.08406602 0.08620994
000010 4f 23 96 3d 63 17 2c bc 35 87 2d bd e9 d7 f1 bd
       0.07330953 -0.010503623 -0.04236527 -0.1180876
000020 9e 21 27 be 2b 9f 1f be 16 7c a6 3d e9 ab 00 be
       -0.16321418 -0.15588062 0.08129136 -0.12565579
000030 38 8e 0d 3e 17 49 82 bd 69 b7 29 3e 12 a6 0c 3d
       0.13823783 -0.06361597 0.16573872 0.034338064
000040 c7 76 0a be 29 05 cb 3d ad 3f 2d bd 2d f5 f7 bd
       -0.13521872 0.099130936 -0.042297054 -0.121073104
000050 b1 cb 87 bd 56 d4 0f 3e 65 c3 0f 3e 7f 6a ac 3d
       -0.06630648 0.14045843 0.14039381 0.0841875
000060 a4 ec 66 3d fc 99 a2 3d c4 da f2 bd 34 4e d3 bd
       0.05637802 0.079395264 -0.118581325 -0.103176504
000070 65 93 c2 3d 2f c0 15 3e d9 c1 a7 bd 65 82 77 b9
       0.095007695 0.14624093 -0.081912704 -0.00023604331

base.6.weight f4 [64, 32, 3, 3]
000000 82 1c 36 bd bb 44 b2 3c 99 7b 71 ba e6 b6 a8 3b
       -0.04446078 0.021761289 -0.0009211838 0.0051487563
000010 5b cf d5 bb 9b c5 c0 bb 84 75 a7 3a fe 31 33 3c
       -0.006524963 -0.0058829314 0.0012776111 0.010937212
000020 b8 a4 14 3d 3b a6 b5 bc bd 97 ac 3b 11 f3 a0 3c
       0.0362899 -0.022173991 0.005267112 0.019647153
000030 9a 29 ca bc 1a 2b de 3b 85 83 e4 ba 3e 61 8f 3c
       -0.02467804 0.0067800405 -0.0017434215 0.017502423
000040 46 a4 30 bd b9 80 53 bd 3f fb 03 bb 20 37 c0 bb
       -0.043125413 -0.05163643 -0.0020138768 -0.0058659464
000050 53 5b b3 bb b2 bd 03 bb 6a 92 83 ba f8 cc df bb
       -0.005473533 -0.002010208 -0.0010038142 -0.006829854
000060 5b d3 94 ba 47 28 85 ba 66 bf af 39 6c d4 e8 3c
       -0.0011354493 -0.0010159098 0.00033521204 0.028421603
000070 8f a1 0a bd 70 80 80 3d 83 b7 90 3c cf 86 ea 3c
       -0.03384548 0.062744975 0.01766563 0.028628735
000080 da 31 12 bd 7d 32 2a 3d 16 d2 9e bc 33 0f 85 3d
       -0.035692073 0.041552056 -0.019387286 0.0649704
000090 1a af 05 3d b8 f8 a6 b9 94 ea 14 3d 64 f9 84 3a
       0.032637693 -0.00031847297 0.036356524 0.0010145125
0000a0 e8 7e 9d 3d f4 9e e0 3c c5 71 8a 3c 23 2b 19 bb
       0.07690221 0.027419545 0.016899953 -0.0023371659
0000b0 d8 92 20 3d 0d 66 1d bd 4f 72 17 bd f5 4a 81 bd
       0.03920254 -0.0384274 -0.036974248 -0.06313125
0000c0 01 78 64 bd 0f d0 aa bd 99 0b ea bc f2 9c 8c bd
       -0.055778507 -0.08340465 -0.028569983 -0.068658724
0000d0 c7 f2 b7 bc c7 a7 f7 bc 75 a6 a7 bd 37 dd 4f 3c
       -0.022454632 -0.03023137 -0.08186046 0.012687019
0000e0 f6 48 e7 3a 43 aa 5a bd 0c 80 87 bd f8 d9 30 bd
       0.0017645645 -0.05338503 -0.0661622 -0.04317662
0000f0 94 a1 a3 bc 3d 4c 9b 3c bb c6 56 bc 69 a1 4e 3c
       -0.019974507 0.018957252 -0.0131089045 0.012611725
000100 01 97 2d 3d 51 13 1a 3d c4 3d 0e 3d 2d 68 4a 3d
       0.042380337 0.037616078 0.034726873 0.049415756
000110 fb 28 f8 3c b6 44 4b 3d d3 a6 7d 3d e8 80 1b 3d
       0.030292979 0.049626075 0.061926674 0.03796473
000120 88 34 f4 bb 78 9a b4 ba 49 7d f7 bb df 68 c1 bc
       -0.0074525513 -0.0013778945 -0.007552777 -0.023609577
000130 65 54 81 3d 68 42 0c 3d 55 44 65 3c db a7 ca 3c
       0.06314925 0.034243017 0.013993342 0.024738243
000140 45 aa 55 3d d6 ab 70 3d f3 0d cc 3d 3c 61 81 3d
       0.052164335 0.058757626 0.09963598 0.06317374
000150 8b 67 28 3d 61 be 79 3d 5c bc c8 3c d1 2c bf 3d
       0.04111437 0.060972575 0.02450388 0.0933472
000160 65 31 d6 3c 22 5e 7b 3d 5b 16 93 bd 43 a1 8c b9
       0.0261466 0.06136907 -0.07181998 -0.0002682303
000170 7a 03 86 bd 52 36 9c 3b cc 43 97 bd 1d ed ee bb
       -0.06543632 0.0047672177 -0.07385978 -0.0072914497
000180 f9 92 b9 bd 00 2a ad bd 9f 9a 57 bc 51 db 64 3d
       -0.09061236 -0.084552765 -0.013159423 0.05587322
000190 13 95 84 3d 3f 3d e8 bc eb e6 29 3d 86 46 00 bc
       0.06473746 -0.028349517 0.041479986 -0.007829314
0001a0 c9 b4 46 bb b7 60 ba 3c 73 c2 d6 3c cb 37 a9 3c
       -0.0030320159 0.022751195 0.026215767 0.020656487
0001b0 10 db 1f bd 72 a8 06 3d 51 32 19 bd b8 1d 62 3d
       -0.039027274 0.032875486 -0.0374015 0.055204123
0001c0 4a 1e e9 bb 5f e9 d7 3c a8 b6 32 3d 58 62 61 3c
       -0.0071142064 0.026356397 0.043631226 0.013756357
0001d0 e9 87 c2 3c d5 58 89 bd 5f e3 26 3b 83 af 98 bd
       0.023746448 -0.067063965 0.0025465114 -0.07455351
0001e0 e8 c3 91 ba d2 02 34 bd d9 dc 84 bd 2d e8 a6 bc
       -0.0011121007 -0.043948002 -0.06487436 -0.020374382
0001f0 5a 38 14 bc df ef f8 3c 08 e4 cc 3c 0c 56 e7 3d
       -0.009046638 0.030387817 0.025011078 0.11295709
000200 c3 c1 35 3d 11 68 55 3d 56 cc fa b9 42 9a 88 3c
       0.04437424 0.0521012 -0.00047835958 0.016675118
000210 a8 33 1a 3c 89 2e 37 3c f3 75 ae bb 66 70 80 bc
       0.00941173 0.011180528 -0.0053241192 -0.015678596
000220 ef a2 c8 bc e2 ad cb bb ff 65 54 bc 9c 04 0f 3d
       -0.024491755 -0.006215797 -0.012963771 0.034916505
000230 9f 90 40 3d 48 d4 26 ba be 4b 82 3d 70 b5 9f 3d
       0.04701292 -0.000636403 0.06362103 0.07798278
000240 14 8b 58 3d 38 a9 63 3d b0 22 2a 3d 2b 7f 4f 3d
       0.05286701 0.0555813 0.041536987 0.050658386
000250 13 0d 8e 3d ec 42 e9 3c d7 04 17 3d 9f 2e 85 3d
       0.069360875 0.028474294 0.03686985 0.06503033
000260 65 30 4f 3d e3 c7 50 3d c6 a7 56 3d 28 82 54 3d
       0.050583262 0.050971877 0.052406095 0.05188194
000270 32 c7 4b 3d ba ca 86 3d d1 87 d7 bc da c1 1c bc
       0.049750514 0.06581636 -0.02630988 -0.009567702
000280 d9 a4 af bb fe 88 8e 3c 15 22 52 bb dd 39 14 3c
       -0.0053602275 0.017399307 -0.0032063772 0.009046999
000290 79 23 44 bc c6 47 a9 bd d9 91 b4 bd 02 af 46 bc
       -0.011971348 -0.08265643 -0.08816881 -0.012126686
0002a0 6e 6e 02 bd 27 c1 6a bc cb 62 db 3c 6e 01 48 3d
       -0.031843595 -0.014328278 0.026780507 0.04882949
0002b0 6b b3 ad 3c d4 75 96 3d 76 2e f4 ba 28 a1 4c 3d
       0.021203717 0.07346693 -0.0018629569 0.049958378
0002c0 dc c4 57 3d 50 c9 84 3c a3 11 b1 3d 73 66 81 3d
       0.052677974 0.016209275 0.08645942 0.06318369
0002d0 28 5f 81 bc 4b cd 79 3c dd 4d 8c 3c ff e2 4b bc
       -0.015792444 0.0152467 0.017126972 -0.012444257
0002e0 ef dc dc 3c 3d a5 9d 3c 00 13 c8 3a 1e bf 2e 3d
       0.026960818 0.01924383 0.0015264452 0.042662732
0002f0 ad d2 ab 3c 5d 2b f0 3b 25 2d da 3a 94 44 27 bd
       0.020974481 0.007329388 0.0016645534 -0.040836886
000300 30 92 5a 3d 12 ce 72 bc 0a 79 26 3d 20 04 04 3d
       0.05336207 -0.014819639 0.040642776 0.032230496
000310 21 26 ea bb b4 18 1a 3d 46 2d a7 3c 1a 38 53 3d
       -0.0071456586 0.037621215 0.02040733 0.051567174
000320 2c 09 b1 bc 1a bd 79 3d f6 bc 15 3d a8 b9 4b 3c
       -0.021610819 0.060971357 0.03655716 0.012434401
000330 c4 ee ea bc 75 1e 9e 3c 5b c8 1b 3d 3e aa 5b bd
       -0.028678305 0.019301632 0.03803287 -0.053629152
000340 40 f9 91 3c 8c 52 db bc cc 1d 35 bc b8 5e 1f 3d
       0.017819047 -0.02677276 -0.011054467 0.03890869
000350 a7 b9 06 bd 7a e9 0a bd cb 29 80 3d e3 c2 d4 bc
       -0.032891896 -0.033914067 0.062579714 -0.025971835
000360 33 89 fa 3c 46 d8 c0 3c 64 63 02 3d 0b 69 68 3d
       0.030583 0.023540627 0.031833068 0.0567408
000370 68 c1 08 3d f7 82 2e 3c 87 79 68 3d 4b 19 f9 3c
       0.03338757 0.010651342 0.056756523 0.030407568
000380 f2 56 32 bc 44 cf 20 bd a8 64 06 ba f6 51 8b bd
       -0.010884987 -0.039260164 -0.0005126693 -0.06802742
000390 48 55 08 bd 13 3c 8c bd 61 21 19 3d aa 34 2b bd
       -0.033284456 -0.06847396 0.03738535 -0.04179827
0003a0 08 76 81 bd b3 ee 8f bb 5a 2e 38 bd c4 33 94 bc
       -0.06321341 -0.004392469 -0.04496608 -0.01809109
0003b0 cb 7d 3a 3b 1d c2 f2 bb 1e 4e 2f 3d 79 95 4b bd
       0.0028456326 -0.007408394 0.042799108 -0.049703095
0003c0 b8 c6 72 bd d9 4b a9 bc ba e6 81 3c cd b3 d2 3c
       -0.059271544 -0.02066605 0.01585709 0.025720501
0003d0 13 32 86 bc 96 e7 45 bc 6e a9 30 3c 82 cf 9c 3c
       -0.0163813 -0.01207914 0.010782583 0.019141916
0003e0 8a 8c 2a 3d a9 f4 a0 bc 2b ae 36 bc 2b 43 22 3a
       0.041637935 -0.019647913 -0.011149923 0.00061898184
0003f0 b3 4e 03 3d 64 95 bb 3c ad 0a 47 3d d7 2c 81 bb
       0.032057475 0.022898383 0.048594166 -0.003942113

base.6.bias f4 [64]
000000 75 af e0 3c 7e b0 40 bc 68 e0 b9 3c ee af b7 3d
       0.027427414 -0.011760829 0.022690013 0.08969103
000010 9e 48 9c 3d b9 e9 4d b6 14 b8 67 3d 82 69 3f bc
       0.07631038 -3.0683425e-06 0.056572035 -0.01168287
000020 eb 3b 46 bc 94 1e e0 3d ff 3c c0 3c 89 19 2e 3d
       -0.0120992465 0.10943332 0.023466585 0.04250482
000030 35 76 22 bd dc ce 95 bd 3d 38 c8 3b 0e 64 8f bb
       -0.039663512 -0.07314846 0.0061102198 -0.004375941
000040 66 14 cf bc fd 00 82 3b bd b0 14 bd 60 75 1a bd
       -0.025278281 0.003967403 -0.036301363 -0.037709594
000050 30 a1 27 bc 03 e4 5d bd 2b 1c 81 3d e5 a2 68 3d
       -0.010231301 -0.054172527 0.06304201 0.056795973
000060 b1 58 e6 ba 0e d0 d6 3d 6c 05 c2 3c aa 64 c0 3d
       -0.001757404 0.10488902 0.023684226 0.093942
000070 42 de 85 3c 23 e8 14 bd 55 ef bb 3d e3 55 5e bd
       0.016341332 -0.036354195 0.09176508 -0.054281127
000080 d4 fe 69 3d ba 64 e1 bb d1 fa a1 3c 45 09 27 3c
       0.05712779 -0.0068784626 0.019772919 0.010195081
000090 8c 20 a6 ba 30 47 bb 3c 9f c7 81 bd 9e 45 af bd
       -0.0012674495 0.022861093 -0.06336903 -0.085582
0000a0 88 d9 3f bd 7a d1 61 3d 87 d7 c4 bc 66 bf 78 3d
       -0.046838313 0.055131413 -0.024028553 0.060729407
0000b0 f3 74 f8 3d c1 e8 6c 3d e8 a5 d3 3b e7 39 08 3c
       0.12131681 0.05783916 0.0064589866 0.008314586
0000c0 ae 81 30 3c be d7 cf 3c fa 2f d1 3c fd 5f 8d 3a
       0.010773106 0.025371429 0.025535572 0.0010786053
0000d0 8b 4b 50 bd 3a 45 87 bd 1a 36 4f bc 6c a1 b8 3d
       -0.050853293 -0.06605001 -0.012647176 0.09015164
0000e0 fe 0e d9 bc 59 5b 41 3d 7e d6 00 bd dd 08 9a bc
       -0.026496407 0.047206257 -0.031454556 -0.018803054
0000f0 27 17 e1 3c 3f 22 57 bc 1e 61 96 3d 70 db 36 bc
       0.02747686 -0.0131307235 0.073427424 -0.011160716

base.9.weight f4 [128, 64, 3, 3]
000000 e3 60 d3 bb ac 4c ef bc 44 79 cf bb 0b 45 70 3b
       -0.006450759 -0.029211365 -0.0063315947 0.0036662247
000010 2c bb c8 bb d6 62 f5 bb c2 cb 0f bc 5e 70 29 bc
       -0.0061258283 -0.007488589 -0.008776607 -0.010341732
000020 13 bc e7 bb 93 2d 55 bb 8f 13 46 bb 4f fd 20 bb
       -0.0070719807 -0.0032528385 -0.003022406 -0.0024565046
000030 86 15 4c bb a5 87 48 bb 45 65 1b bb 14 a1 38 bb
       -0.0031140759 -0.0030598429 -0.0023711484 -0.0028172182
000040 89 0a 33 bb 4c b6 13 bb c1 1f 7c bb 7c 66 a6 3c
       -0.0027319512 -0.0022539077 -0.0038471075 0.02031254
000050 f9 88 cd 3c 4a c4 16 bd f8 3f 0b bd 61 2c 77 3c
       0.025089728 -0.03680829 -0.033996552 0.015086264
000060 04 b2 ac 39 0f d9 4c bb 06 ab 37 bb a8 ed ba bb
       0.00032939028 -0.0031257307 -0.0028025522 -0.0057046004
000070 26 7a fa bc c4 7c 9d 3c 5c c0 fb b9 48 59 1d bc
       -0.030575823 0.019224532 -0.0004801777 -0.009603806
000080 e9 10 9e bc 31 6a 92 bc b9 29 50 bc 59 38 74 bc
       -0.019295173 -0.017872902 -0.01270526 -0.014906012
000090 b1 75 eb bb 86 8d 3c ba ff d0 82 3b 8f ab 32 bc
       -0.007185661 -0.00071927195 0.0039921994 -0.010905161
0000a0 52 c1 7a 3c 85 a1 65 bc dc 83 0a bc 70 1c 0c bc
       0.01530488 -0.01401556 -0.008454289 -0.008551702
0000b0 b5 f2 73 bc 79 b6 f2 2b 54 07 be aa b2 c2 1d ab
       -0.014889409 1.724578e-12 -3.3755865e-13 -5.60478e-13
0000c0 dc c6 26 ab c2 76 34 ab 63 3e cf 2b 2e ec 8c 2b
       -5.925102e-13 -6.4113656e-13 1.472555e-12 1.0013151e-12
0000d0 2d e8 82 ac 66 aa 5d 2c 4a d3 01 bd 20 71 62 ba
       -3.720599e-12 3.150058e-12 -0.03169564 -0.0008638073
0000e0 e1 ce 20 3c 38 44 f8 bc b4 2c 85 3c 56 fd 21 3c
       0.009814949 -0.030305967 0.016256668 0.00988706
0000f0 ec 5b 18 3c 4e 59 34 3c 0a 60 91 3c 54 57 8c bc
       0.00929926 0.01100762 0.01774599 -0.017131485
000100 29 39 b1 bc a1 7e 0c bc 0a 2d c2 bb d6 f9 b2 bc
       -0.021633701 -0.008575113 -0.005925779 -0.021847647
000110 e7 1c 85 ba e4 4c 06 39 81 72 67 b9 45 f9 91 bc
       -0.0010155708 0.0001280788 -0.00022072533 -0.017819056
000120 97 26 97 bc 1b 02 cd bc 02 d9 c1 bc e0 e4 d3 3b
       -0.018451018 -0.025025418 -0.023663048 0.006466493
000130 54 35 77 bc f6 a1 c6 bc 0c 79 cd ba a2 f5 31 3b
       -0.015088398 -0.02424715 -0.0015676334 0.0027154465
000140 44 69 ac bb b8 6f bd bc 01 35 f7 39 6f 56 a4 3c
       -0.005261572 -0.02312456 0.00047151002 0.020060746
000150 f7 35 5d 3b c4 52 85 bb 0c 9f a3 bc 58 6d 72 bc
       0.003375409 -0.0040687043 -0.0199733 -0.014796577
000160 97 71 8e bc 5a b0 dd bc bd 88 86 bc 1a bc 47 bc
       -0.017388148 -0.02706163 -0.016422624 -0.012190843
000170 5d f6 43 bb 46 8c d1 3b 41 17 95 bb cd 5c 97 bc
       -0.0029901483 0.0063948957 -0.004549891 -0.018476868
000180 cc 77 ab bc a8 e9 7e bc b2 c8 5a bc 3c 84 81 3a
       -0.020931147 -0.015558638 -0.013353514 0.0009881328
000190 4c 11 ec ba bb 6c f7 39 22 50 9b b9 b7 a6 9b ba
       -0.0018010526 0.00047192522 -0.00029623607 -0.0011875246
0001a0 8b e0 83 ba 85 c8 77 39 40 84 ee 3a c5 fe da 3a
       -0.0010061426 0.00023630455 0.0018197373 0.0016708007
0001b0 80 7a 9f bc 59 8c 02 3c 5e 08 fd bb 16 7a e4 bb
       -0.019467592 0.007968032 -0.0077219447 -0.0069725616
0001c0 c2 96 df bc 7c ea 7a 3c 41 50 d3 3c 79 0c b9 bc
       -0.027293567 0.0153146945 0.025795104 -0.022588955
0001d0 9c 3d fa bc fa 7d f2 38 b5 57 58 38 d4 8c ba b9
       -0.030546956 0.00011562924 5.1580097e-05 -0.0003558161
0001e0 62 57 c4 ba d6 99 23 bb be 59 36 3a c3 df 55 3a
       -0.0014979655 -0.002496352 0.00069561217 0.0008158648
0001f0 1c 69 d7 b9 b0 d1 03 bb 99 4f 9b 3a bc 22 60 bc
       -0.00041086308 -0.0020113997 0.0011849283 -0.013680156
000200 f6 9e aa bc b4 73 b5 bb dc 4b 4f 3c c0 fb b3 3c
       -0.020827752 -0.0055374745 0.012652364 0.02197063
000210 71 f8 56 bc ff 80 05 bc fc 66 20 bc a3 e1 f4 bc
       -0.0131207565 -0.008148431 -0.009790178 -0.029892748
000220 1d a7 88 3b cd 58 84 3a ae 10 bc bb f1 36 f0 3c
       0.004170312 0.0010097265 -0.005739293 0.029323073
000230 3a 4b 97 bc 07 7d 99 3c 63 25 00 3d 07 1b fa 3c
       -0.018468488 0.018736375 0.031285655 0.030530466
000240 7d 82 b9 bb 36 9a 94 bb 66 90 89 bb c2 c2 e2 ba
       -0.0056613074 -0.004534985 -0.004198122 -0.0017300474
000250 36 17 96 bb 23 cc 63 bb 75 30 15 bc 01 1e 96 bc
       -0.0045804037 -0.0034759126 -0.009105791 -0.018324854
000260 c8 1a 1e bc 86 05 61 bb 47 dd 29 bb 9a 77 2b bb
       -0.00964994 -0.0034335568 -0.0025919245 -0.0026163817
000270 9b f3 b1 bb a0 97 57 bb dd 70 4d bb 81 dc 9d ba
       -0.0054306514 -0.0032896772 -0.003134779 -0.0012043865
000280 df c8 98 bb 98 cf cf 3a 42 d7 30 bb 47 bd 04 bd
       -0.0046626176 0.0015854714 -0.0026983772 -0.03240707
000290 01 11 f1 bb 63 52 e0 3a eb ba 2e 3c 89 2b 8e bc
       -0.0073567634 0.0017114397 0.010664682 -0.017354744
0002a0 52 d7 82 3c fb 43 90 3b 93 68 7a 3c 6b 4a 0e bd
       0.015971813 0.004402635 0.0152837215 -0.03473894
0002b0 c3 7b fc bc 81 2c c9 bb 72 fd 14 bd 92 a2 2f bb
       -0.030820733 -0.0061393385 -0.036374517 -0.002679978
0002c0 00 3f 87 3b 22 94 6e 3c 72 4c 0c 3c 3f 34 47 3c
       0.004127383 0.014561685 0.008563148 0.0121584525
0002d0 eb ac 1e bd 15 12 24 bd da 51 e3 3c 39 76 8e bc
       -0.038739126 -0.040056307 0.02774899 -0.017390357
0002e0 62 f4 08 3c 15 cb ae bc 7e 74 01 bd f4 86 f2 3c
       0.008359047 -0.021337071 -0.031605236 0.029605366
0002f0 ed af a2 3c fa 2d 4c bc d7 1d ca bc e0 ce be bb
       0.019859279 -0.012462134 -0.024672432 -0.0058230013
000300 9b 9e 0d 3b fa 86 51 3c fc 73 b9 bc c0 f4 09 bc
       0.0021609429 0.012788529 -0.022638313 -0.008420169
000310 9b 99 1c bc cf 24 66 3a c0 19 86 bc b1 6f 32 bc
       -0.009558107 0.00087792886 -0.0163697 -0.010890887
000320 cf 1a 8e bb 79 d6 83 ba 15 b5 dd 3a 85 da 81 bb
       -0.004336692 -0.0010058425 0.0016914929 -0.003962817
000330 36 5d ea 3b 62 ad 5d bc 42 b3 5d bb d4 8e 38 bc
       0.007152225 -0.013530107 -0.003382877 -0.011264522
000340 79 bc 0f bb 61 6d 9d bb f6 92 5b ba 64 0f cf bc
       -0.0021932407 -0.0048042987 -0.0008376086 -0.025275894
000350 84 00 69 bc a2 21 fe bb bb 0c 9f bc 3d 9f 08 bc
       -0.014221314 -0.007755474 -0.01941525 -0.008338747
000360 2f e7 c5 ba d6 58 a9 3a 65 89 de ba c1 4d f2 ba
       -0.0015098805 0.0012920152 -0.0016978203 -0.0018486307
000370 08 30 81 3a 62 db 01 bb ab 15 ae 3b 89 e7 00 3a
       0.0009856233 -0.00198146 0.0053126416 0.0004917314
000380 e7 ab 05 3a 30 c5 90 3c c8 7b b7 3c 12 8d 66 bb
       0.0005099163 0.017672151 0.02239789 -0.00351793
000390 e9 55 54 bc 6a 95 e9 3c f2 74 b6 3b 81 3c 3f 3c
       -0.012959936 0.028513629 0.00556814 0.01167214
0003a0 47 06 df 3b 68 e5 cc bc 14 bb 5f 3c ae ef 9f bc
       0.0068061682 -0.025011733 0.013655443 -0.019523468
0003b0 de 0b b7 3c a8 4d b8 3c 40 ad 3d 3c 99 a1 99 ba
       0.022344526 0.022497967 0.011576951 -0.0011721133
0003c0 48 09 bf bc 1e bb e4 3b 29 82 29 bd cd 13 86 3c
       -0.023319855 0.006980314 -0.041383896 0.016366864
0003d0 44 a0 88 3b 6d 17 cc bc f8 f5 da bc bc 88 a5 bb
       0.004169496 -0.024913514 -0.026728615 -0.0050517004
0003e0 31 92 38 3c 3d 85 a5 3c 2c 9f 4c bb 24 97 4f bb
       0.0112653235 0.020205135 -0.0031222804 -0.003167578
0003f0 d3 4e 86 bc a0 b3 dd 3b c9 d3 6d 3b 00 28 60 3b
       -0.016395008 0.0067657977 0.0036289564 0.003420353

base.9.bias f4 [128]
000000 dc f0 5c bc c4 64 9c b7 4c 43 63 3d ba b0 f3 3b
       -0.01348516 -1.8643572e-05 0.0554841 0.007436839
000010 a8 4d 96 3c 3f 59 b8 bc c3 4f fe bc 5e e8 d2 bc
       0.018347576 -0.022503493 -0.031043893 -0.025745567
000020 0d a2 1a bd b1 08 00 3b 83 7c d6 3c 8b 14 d5 ba
       -0.0377522 0.001953643 0.026182419 -0.0016256733
000030 97 f9 75 3c 8a eb c0 3c 00 ab ee bc 14 22 9b 3c
       0.01501312 0.023549814 -0.029134274 0.018937148
000040 70 47 8d bc ca ce 1d bd bb 63 2b ba 46 57 76 bd
       -0.017245978 -0.038527288 -0.00065379933 -0.060141824
000050 63 75 87 3c 7a 9b 16 b6 2e fe e6 bc 60 85 90 3d
       0.016535467 -2.244224e-06 -0.028197374 0.07056689
000060 b9 5e 12 bd dc 25 88 bd 48 c8 61 3b d3 b3 04 bd
       -0.035734866 -0.06647846 0.0034451652 -0.032398056
000070 83 f9 a6 3c 41 7d a3 bb 2e 57 02 bc bc 7b 51 3d
       0.020382648 -0.0049892967 -0.007955356 0.051143393
000080 32 04 9a 3c df af 39 3d 10 3e 8e 3d 11 36 02 bd
       0.018800829 0.04533374 0.06945431 -0.031789843
000090 fe 37 9a 3c 86 d9 80 bc d4 21 3c bc 20 42 70 3b
       0.018825527 -0.015728723 -0.011482675 0.0036660507
0000a0 0f 96 e8 bc 21 7a 2e 3c f3 18 3c 3c 98 10 38 3d
       -0.028391866 0.010649235 0.011480558 0.0449377
0000b0 2c 85 56 3d ae 42 4d 3c 60 ae ae 3c f7 36 32 3d
       0.052373096 0.012528105 0.021323383 0.04350945
0000c0 5a 97 27 3c 26 9b 28 bd 63 f1 0c 3d be 5a 10 3c
       0.010228956 -0.041163586 0.03440989 0.008810697
0000d0 26 c0 45 3c 43 e7 2f bd 61 d6 ae 3b 10 8b a9 bc
       0.012069738 -0.042945158 0.0053356146 -0.020696193
0000e0 52 ef 79 3d e9 ac 24 3c 9f 71 e0 bc 8b 1c 6d 3b
       0.06101925 0.010050991 -0.027397929 0.0036180343
0000f0 e2 af 42 3c c7 47 17 bd 45 4b 21 bd b7 11 0e 3d
       0.011882754 -0.036933687 -0.039378423 0.034684863
000100 bf 14 1f 3b 35 30 0a bd 9b 34 2e 3d a9 d0 48 3d
       0.002427384 -0.03373738 0.042530637 0.04902712
000110 9d 2d 52 3d 90 aa f6 ba 4d 5a 60 3d 23 75 ae bc
       0.05131303 -0.0018819142 0.054773618 -0.02129609
000120 08 19 bb 3c cf 52 ea bc e6 b1 35 39 42 fe 24 bd
       0.022839084 -0.02860394 0.00017327777 -0.04028154
000130 cc a4 06 bd d6 5a 13 3d eb 2f 0d bc 04 12 39 3c
       -0.032872006 0.0359753 -0.008617382 0.011295799
000140 f5 6c f4 3c 7b cf d3 3c b5 7c 72 bb 7c 70 c1 bc
       0.029837111 0.02585577 -0.00370006 -0.023613207
000150 66 5a 4c 3d c4 04 7c bc b6 52 01 3c c0 88 53 bb
       0.0498909 -0.015381996 0.007893255 -0.0032277554
000160 91 60 8e ba 10 7d 59 b6 63 9f 9f 3d 57 13 dc 3c
       -0.0010862519 -3.2408316e-06 0.077940725 0.02686469
000170 68 49 1b bd f5 da a3 bc 18 21 25 3d b6 4b 73 3d
       -0.037911803 -0.020001868 0.040314764 0.059398375
000180 ea 0e 11 bc d0 02 2d 3c f7 05 ab bc ab d4 8d 3d
       -0.008853653 0.010559753 -0.020876868 0.06925329
000190 22 9a 48 3d a5 8f 3e bb e7 3f 32 bd 16 40 1f bc
       0.048975118 -0.0029077318 -0.043517973 -0.009719869
0001a0 c7 3b 01 3d 0f fa 92 bb 56 cb 25 3d 62 17 8c bc
       0.03155115 -0.0044853757 0.04047712 -0.017100994
0001b0 64 1f 65 3c 73 07 84 3b ea 4b b1 bc 73 34 22 3c
       0.013984535 0.0040292083 -0.021642644 0.0099002
0001c0 01 4a 13 bc 2d 84 3c 3d 57 91 29 bd 6a d3 63 3d
       -0.008989812 0.04602449 -0.041398373 0.055621542
0001d0 78 f5 29 3d 24 55 dd bc 49 56 a3 bb 79 ad 92 bc
       0.041493863 -0.027018137 -0.004984651 -0.017904984
0001e0 6e 1f 9e bc 16 ef 20 3b af ad 31 bc 23 8a 8a 3b
       -0.019302096 0.0024556569 -0.010844632 0.004227893
0001f0 28 0a 09 3d 38 3c 63 3c d0 33 83 3c 42 ca 67 bd
       0.03345695 0.013869338 0.016015917 -0.056589372

fc.weight f4 [4, 128]
000000 cb 34 81 bd f6 00 4a b8 d7 71 88 bb db 09 c3 bc
       -0.063088976 -4.8161448e-05 -0.0041639614 -0.02380841
000010 2f 45 7f 3b d6 f0 d1 3b 0a ff 30 3d 1d 4e e1 3d
       0.0038951149 0.0064068837 0.043211974 0.11001227
000020 c2 8e 95 bd 04 cd 8b bb ee f5 1d 3c 29 b1 17 3c
       -0.073026195 -0.004266383 0.009641154 0.009258547
000030 b0 26 c3 3d bb 11 f3 bc f5 8f 7b 3b 5c 97 0f 3b
       0.095288634 -0.02967154 0.0038385366 0.0021910286
000040 6d 97 ca 2f 0e d3 2b bd 57 31 05 bc 55 a3 b9 bd
       3.685118e-10 -0.041949324 -0.008129439 -0.09064356
000050 88 39 cf bd d3 5d 2c 36 f3 9e 91 bd bc 6f 51 3d
       -0.10118395 2.568461e-06 -0.07110395 0.05113195
000060 36 7a 5f 3d 44 dd 87 3d c7 ac 90 3b 88 24 d3 bd
       0.05455991 0.06634 0.004415128 -0.10309702
000070 c5 03 7c bd 00 88 17 3a b2 f2 84 3d bd 51 68 bd
       -0.061527032 0.00057804585 0.06491603 -0.056718577
000080 94 26 f9 bc 08 28 dd 3c 6e 2f 46 bc 72 56 46 3c
       -0.030413903 0.026996627 -0.012096269 0.012105571
000090 2b 38 e0 bd 16 55 db ba 0d 19 38 bb d7 e8 35 3d
       -0.10948213 -0.0016733732 -0.0028091103 0.044411507
0000a0 b2 8c ee bd 55 46 13 3c 6e 10 99 bc 54 a0 df bc
       -0.11647929 0.008988936 -0.018684592 -0.02729813
0000b0 9d 88 0b 3c 9c d3 fd 3c d4 8f 41 3c 40 9a 93 3b
       0.008516458 0.030984692 0.011814076 0.004504472
0000c0 95 07 bd bd 14 8f 78 3b ec b3 bf bd be 20 38 bd
       -0.09229962 0.0037927078 -0.09360489 -0.0449531
0000d0 6d da 12 3d 38 0e df bd 68 4f b3 bc b0 02 8e 3d
       0.03585284 -0.10891384 -0.02188845 0.06934106
0000e0 5f 87 cb 3d bd 93 c0 3d 58 6e b8 bd e0 7a 60 3c
       0.09937929 0.09403179 -0.090054214 0.013701171
0000f0 18 8b b7 3c 57 1c e2 bd 02 36 f2 bd b7 ce 59 bd
       0.022405192 -0.11040562 -0.118267074 -0.053175654
000100 ef d9 d0 bd 7d 55 7c 3d 4c db b6 3d fb fc f2 bd
       -0.101978175 0.061604965 0.08928546 -0.118646584
000110 98 4f 04 bd a1 eb 7c 3d 28 9e e4 3c 28 10 a4 3c
       -0.03230247 0.06174815 0.027907446 0.020027235
000120 6d 1d 9c 3d 2a 22 90 bd 71 bd d7 b9 93 d3 6f bd
       0.076228 -0.07037766 -0.0004114914 -0.058551382
000130 b7 3f 9c bd 36 f0 b2 3c e0 fd 7c 3a 90 da 2c 3c
       -0.0762934 0.021843057 0.00096508674 0.010550156
000140 42 38 4a 3d 2f 57 aa 3c 4f 8b 82 bb b7 ae 43 3d
       0.049370058 0.020793526 -0.003983892 0.047774043
000150 a8 68 a4 3d 22 25 fc bd 0f 98 58 bd a1 e9 8f 3c
       0.08027774 -0.1231177 -0.05287939 0.017567458
000160 8f 66 c1 b6 24 72 95 ac 2a 60 5c 3c 76 df 1f 3d
       -5.7637876e-06 -4.247507e-12 0.013450662 0.03903147
000170 00 c1 5d bd e4 af 35 bd dd 38 cb bd 6e 9b 82 bd
       -0.054139137 -0.044357195 -0.09922955 -0.06377302
000180 1e ae 6f 38 d3 e0 06 3d da a2 85 3d b7 08 96 3d
       5.71442e-05 0.032929253 0.06525202 0.07325881
000190 af 8d b3 3d 77 80 35 3d 20 e5 e3 bd ca 88 c9 ba
       0.087672584 0.044311967 -0.111276865 -0.0015375849
0001a0 ee ce 97 3d f9 95 d3 3c f7 f0 5f bd e1 85 c7 ba
       0.074125156 0.025828348 -0.05467316 -0.0015222394
0001b0 b2 f1 99 3d 71 ea c9 bc b4 ff 18 bc 94 b1 a1 3b
       0.07516803 -0.024647923 -0.009338308 0.004934499
0001c0 38 45 d0 3b 7f 3a cc bc 78 a9 98 3d 88 6a e0 bb
       0.006355908 -0.024930237 0.074541986 -0.006848637
0001d0 20 8b 20 3d 38 3f a1 3c 56 ee 14 be 89 76 40 bd
       0.03919518 0.019683465 -0.14544043 -0.046988044
0001e0 4a 43 69 bd c6 e5 5e bd 1b c9 78 bd 6e e9 6c 3d
       -0.056948937 -0.054418348 -0.060738664 0.057839803
0001f0 c2 ee 94 3c 17 6c f7 bd d1 82 46 3d cd 12 f6 3b
       0.018180255 -0.120811634 0.0484646 0.0075095654
000200 7a 2a 12 bd 63 f1 6d bb 67 8a f5 bb 94 19 8b bb
       -0.03568504 -0.0036307208 -0.0074933055 -0.0042449925
000210 06 ff 38 3a a6 be 81 3b 3b 5f 1e bd c3 22 11 3e
       0.00070570444 0.0039594946 -0.038665038 0.14173417
000220 29 89 3f bc 10 6f a5 bc 23 a7 ea bc 50 32 6e 3b
       -0.011690416 -0.02019456 -0.02864415 0.0036345907
000230 83 9d df bc b1 ee 30 3c 01 1c 04 3d bd 28 ae 3d
       -0.027296787 0.010799096 0.03225327 0.08503864
000240 c9 5a 9d 37 d7 12 a4 3c 76 91 19 bc f9 e3 71 bd
       1.8758134e-05 0.020028515 -0.0093730595 -0.059055302
000250 ad 44 c1 3d c8 f6 25 35 7a f0 26 bd 09 26 d8 bc
       0.09436927 6.1826404e-07 -0.04075668 -0.026385324
000260 ca b9 4d 3c ed 95 80 3d cb de 0f bd 1e 79 a2 3d
       0.012556503 0.06278596 -0.03512458 0.079332575
000270 2d 63 1c 3d 9a 74 19 35 48 7e fc 3d 4c fd 80 bd
       0.03818052 5.716662e-07 0.12328774 -0.062983125
000280 26 9b 9d bd a1 3c 77 bd 1a dd 74 bd cc e1 29 bd
       -0.07695608 -0.060360555 -0.05978117 -0.041475102
000290 8b eb 7d bd 58 14 26 bb 76 cd a2 b9 15 ac 47 bc
       -0.06199221 -0.0025341716 -0.00031052128 -0.012187024
0002a0 a7 4e 9b bb 13 53 b0 3b 73 90 6a 3c d9 f6 63 3d
       -0.0047396007 0.005380997 0.014316666 0.055655334
0002b0 4c a3 b3 bc b3 92 5f bd bc 62 22 3d 64 f9 c3 3c
       -0.021928452 -0.054583263 0.03964494 0.02392263
0002c0 69 88 ab 3d e8 d7 6d 3c e0 cb 99 3c 0c 83 46 3d
       0.083756275 0.014516808 0.018773973 0.04846482
0002d0 5e ec f4 bc 58 a4 85 3c 2e ef b6 bd cc 3a 0e 3d
       -0.029897865 0.016313717 -0.08932339 0.03472404
0002e0 71 e2 3b bd 3a d7 a2 3c db 60 13 bd b3 0e 96 bc
       -0.04587025 0.019878019 -0.03598104 -0.018317556
0002f0 4f 49 4d bd e0 17 67 bb c2 34 a8 bb 26 14 a7 3d
       -0.05011874 -0.0035262033 -0.0051332423 0.0815814
000300 16 e6 12 3c 4c 13 29 3d 17 78 39 3d 6e 04 b8 3d
       0.00896599 0.04127817 0.045280542 0.0898522
000310 49 f3 bc bd b8 f5 c5 3d f3 b8 ed 3c 96 3c 2d bc
       -0.092260905 0.09666008 0.029018855 -0.010573527
000320 f0 5a 36 bb 64 de 56 3c ae 0d 33 bc 5b 55 91 bb
       -0.00278252 0.0131145455 -0.010928554 -0.004435224
000330 ab 61 7a 3d bf ee 3a bc b3 75 c7 bb 90 66 de 3d
       0.0611283 -0.011409461 -0.006087029 0.10859406
000340 4d 3f 82 bd 85 94 9c bc 9c fd 5b bc 82 d7 da 3c
       -0.0635973 -0.019113788 -0.013427164 0.02671409
000350 e9 46 8b bb cc 37 a0 ba af 67 53 bd d6 25 3d 3c
       -0.0042503965 -0.001222366 -0.051612552 0.011544665
000360 04 59 bc 30 cc af de 2b 5f 16 b0 bd 84 29 9e 3c
       1.37041e-09 1.5822842e-12 -0.08598017 0.019306906
000370 a2 ac e8 3c 3b 76 cb 3c ce c4 ca 3d d3 2f 25 bd
       0.02840263 0.02483665 0.09900819 -0.04032881
000380 c0 00 9a 31 cc 95 a1 3d b4 71 dc 3b a0 42 76 3d
       4.482075e-09 0.078898996 0.0067274217 0.060122132
000390 ae db 68 bd 26 bb cb 3d 51 0d 2e 3d c3 bd 97 3b
       -0.056850128 0.09947805 0.04249317 0.0046307757
0003a0 15 63 43 3d db 37 11 3d b3 87 a7 bd 94 e8 f3 3b
       0.047701914 0.03545366 -0.081801794 0.007443497
0003b0 0a 3b 8f 3d b7 30 1f 3a af 82 b3 3d 14 78 f1 3c
       0.06993683 0.0006072628 0.0876516 0.029476203
0003c0 4e 60 3e 3c 73 cc cc 3c ac dc c3 3d 17 a4 86 3d
       0.0116196405 0.024999833 0.09563574 0.065742664
0003d0 aa 56 2d bd 0b a3 85 3b 9b 9f b4 bc 35 76 26 3d
       -0.042318977 0.004078274 -0.022048762 0.040640075
0003e0 45 fb a2 3d 2a ba f0 bc bc 5e 65 3d 67 0d fd 3b
       0.07958082 -0.029385645 0.05599855 0.007722545
0003f0 e5 ba a0 bb 92 58 8e 3d b1 4f 00 3d 8b 01 da 3c
       -0.004905092 0.06950487 0.031326 0.026612064

fc.bias f4 [4]
000000 b2 e0 35 bd bd a4 70 3d a0 83 00 3d 3c a7 8f 3d
       -0.04440374 0.058750857 0.031375527 0.07014319

conv.weight f4 [4, 128, 1, 1]
000000 7f 95 ad 3d 20 70 a3 bc 52 3e a0 bd b3 58 63 bd
       0.0847578 -0.019950926 -0.07824387 -0.055504512
000010 30 e3 a0 3b 8c c7 0b bd 22 fb 56 3d de 25 31 3d
       0.0049098954 -0.03412585 0.052485593 0.043249004
000020 a6 eb 08 3d e3 7a 88 bd 64 58 f3 bc a4 04 76 bd
       0.033427857 -0.06664064 -0.029705234 -0.06006302
000030 50 f2 42 3c 92 20 8f bd 92 53 12 3d f3 bb 8f 3d
       0.011898592 -0.06988634 0.03572423 0.0701827
000040 65 8b aa 3d ea 2d 30 3d e0 10 23 3b e0 4c e3 bc
       0.08327369 0.043012537 0.0024881884 -0.027746618
000050 bb f0 9c bd 3e 0f 03 bd be fd 36 3d 00 77 4f bb
       -0.07663103 -0.031996958 0.04467558 -0.0031656623
000060 7f 23 99 bd 11 9f 00 bd 80 22 61 3c b1 5e 8d 3d
       -0.074774735 -0.031401698 0.013741136 0.069028266
000070 0e 69 a8 bd 86 7c 1f bd 86 bb 5d 3d 1a d0 3b bd
       -0.082231626 -0.038937114 0.054133914 -0.045852758
000080 0c 53 89 bd 7e fd 6b 3d c0 7a 38 3b 83 83 8c 3d
       -0.06705293 0.057614796 0.0028149337 0.06861021
000090 00 57 15 ba 40 ad 4a bc 80 3a 42 bc 6c 18 9c 3c
       -0.0005696863 -0.012370408 -0.011854768 0.019054614
0000a0 60 e2 85 3c e8 95 1a bc 00 47 a4 bc b4 4f a1 bd
       0.016343296 -0.0094351545 -0.020053387 -0.0787653
0000b0 9e 4f 5a 3d 26 96 2a 3d 6d 8e 57 bd 3c 48 9b bc
       0.053298585 0.0416471 -0.052626062 -0.018955342
0000c0 13 57 ae 3d 15 05 91 bd 38 ff 86 bd 2e 8a 17 3d
       0.08512702 -0.070810474 -0.06591648 0.036997013
0000d0 c3 f7 88 3d ec 9b 4d bd 43 aa ab 3d b8 2e 47 bd
       0.06687882 -0.050197527 0.08382084 -0.04862854
0000e0 ce 41 60 3d 3b 3f 8d 3d d4 58 7b bd d7 80 9b bd
       0.054750256 0.06896826 -0.06136401 -0.075929336
0000f0 a0 5e a5 bd 5a e9 5b 3d 4a a4 f4 bc b7 6c 80 bd
       -0.08074689 0.05368934 -0.029863495 -0.06270736
000100 3d 8b b3 bd 4e a3 1b 3d 80 36 01 3a 34 0e 97 3c
       -0.08766792 0.037997536 0.00049290806 0.01843939
000110 a8 f8 6b bc 14 7b 98 bd 00 71 41 bc 6d ca 8c bd
       -0.014402546 -0.0744535 -0.011806726 -0.06874547
000120 a6 65 f0 bc 10 4b 97 3c 80 7a 1c 3b 54 83 93 bd
       -0.029345345 0.01846841 0.0023876727 -0.07202783
000130 91 7f 00 bd 01 93 86 bd c1 13 82 3d 22 ec 02 3d
       -0.031371657 -0.065710075 0.06351424 0.031963475
000140 c1 32 b2 bd 35 d0 9a 3d d4 d8 bc 3c 1a 45 6b 3d
       -0.08701087 0.075592436 0.02305261 0.057438947
000150 e0 11 8a bb 44 3b ab 3c 1c d4 0f 3d 7a a2 f9 bc
       -0.0042135566 0.020902283 0.035114393 -0.030472983
000160 10 07 aa 3c 70 6d b2 3c d6 1e 07 3d 94 e8 bc bc
       0.02075532 0.0217807 0.03298839 -0.02306012
000170 c8 6c 31 bc c0 e2 d1 bc e6 aa 45 3d 36 44 84 bd
       -0.010829158 -0.025620818 0.048258685 -0.06458323
000180 c8 5a bd bc ae 63 93 bd 83 f1 11 bd f2 6a 44 3d
       -0.023114577 -0.07196747 -0.035630714 0.047953553
000190 98 e6 f3 3c c9 61 71 bd 6b ed b4 3d ab c2 1d bd
       0.029773042 -0.058931146 0.088343464 -0.038515728
0001a0 09 15 8b bd d0 dd f7 3b 40 a1 e4 ba 00 be f9 3a
       -0.067911215 0.007564284 -0.0017443076 0.0019053817
0001b0 75 76 8f 3d b6 53 10 3d 00 a1 d7 b9 20 de f2 bb
       0.07005016 0.035236083 -0.0004112795 -0.0074117333
0001c0 c1 12 9f bd f2 b4 59 3d 10 c0 83 bc fa d0 30 3d
       -0.07767249 0.05315108 -0.016082793 0.043168046
0001d0 5e 8e 22 3d c4 8f 94 3c 7e 78 25 3d da a1 50 3d
       0.039686553 0.018134959 0.040398113 0.050935604
0001e0 9f 5e 93 3d 86 e9 7c bd 60 3e d2 bc bb 86 9d 3d
       0.07195782 -0.061746143 -0.025664508 0.076917134
0001f0 cc 51 dc bc c8 1f 13 3c bf 43 97 bd 2d 27 ad 3d
       -0.026894473 0.008979745 -0.073859684 0.08454738
000200 0a 22 71 3d 28 4c 60 3c 53 6b 68 bd c2 63 fe bc
       0.058870353 0.013690032 -0.056742977 -0.031053428
000210 a0 81 3f 3b 6e d9 07 3d 70 a0 c7 bb b8 95 5e bc
       0.002922155 0.03316634 -0.0060921237 -0.0135855
000220 7c c7 f5 bc 9d ff 8f 3d 78 09 9b 3c 9e 04 21 3d
       -0.030002348 0.07031176 0.018925413 0.039311044
000230 a0 d0 fe 3b 33 0f a8 3d 36 a7 40 3d 3a 21 30 bd
       0.007776335 0.08206024 0.047034465 -0.043000437
000240 10 0b e1 3c 3d 6b b4 3d 0f 32 aa bd b0 fb 86 3b
       0.027471095 0.088095166 -0.08310329 0.004119359
000250 e0 f1 4d 3c 92 ea 0b bd db 8c 88 3d 7d 30 18 bd
       0.0125698745 -0.03415925 0.06667491 -0.037155617
000260 54 49 a3 bc 56 c5 0b bd ae 9d 83 bd f2 ba 3d 3d
       -0.019932427 -0.03412374 -0.064265594 0.046320863
000270 c0 d7 39 bc 68 03 9d bd 6e 6d 74 3d b2 1f a6 bd
       -0.011342943 -0.07666665 0.059674673 -0.08111514
000280 16 3a 32 3d df 58 b2 3d 52 d2 0f 3d 5d b8 79 bd
       0.043512426 0.08708357 0.035112686 -0.06096684
000290 90 d2 40 bc 3c 84 93 bd 2b eb 9c 3d 52 64 22 bd
       -0.011768952 -0.07202956 0.07662042 -0.039646454
0002a0 9c 45 11 3d ed 3e 81 3d 62 40 fe bc 18 b0 45 bd
       0.035466775 0.0631083 -0.03103656 -0.04826364
0002b0 c0 d1 c7 ba 02 96 2f 3d 99 2c b4 3d 06 76 29 3d
       -0.0015245005 0.042867668 0.08797569 0.04137232
0002c0 90 83 47 bc e4 93 3c bd d8 62 41 bc df 44 87 3d
       -0.012177363 -0.046039477 -0.011803351 0.06604933
0002d0 c8 9d 67 bc 30 a6 a7 bd ad 9a b2 3d 8b 4b 06 bd
       -0.014136739 -0.081859946 0.08720908 -0.032786887
0002e0 e8 b1 8a 3c 39 d6 a5 3d 72 7b 5a 3d 2e 51 34 3d
       0.016930535 0.080975 0.053340383 0.04402273
0002f0 2b a0 91 3d 5a af 16 3d 40 a5 80 3b af b2 a3 3d
       0.07110628 0.036788322 0.0039259493 0.079930656
000300 64 6a cb 3c 2e 47 6b 3d 73 e2 b1 bd a8 5b 09 bc
       0.024831004 0.05744093 -0.0868577 -0.008383669
000310 70 fb 58 3c c7 93 a5 3d d2 c1 55 3d e2 0b 9b bd
       0.013243541 0.08084827 0.052186795 -0.07570626
000320 ce 7a 4d 3d e7 14 46 bd 52 71 68 bd 4d d8 04 bd
       0.050165944 -0.048359778 -0.056748696 -0.032432843
000330 40 95 8b ba f8 6b 5c bc e8 55 5a bd 09 c7 86 3d
       -0.0010649338 -0.013453476 -0.053304583 0.06580932
000340 4d 6f 89 3d 2b 0d a2 3d 2f 55 a2 bd 88 bb e3 3c
       0.06710682 0.07912668 -0.07926404 0.027799383
000350 50 09 0a bc 5f b5 97 3d 7e 95 89 bd 00 3c c7 b8
       -0.008425072 0.07407641 -0.067179665 -9.500235e-05
000360 9e f8 9b bd af 2a 1f bd 72 37 3b 3d 58 40 0a 3d
       -0.07615779 -0.038859066 0.045707174 0.03375277
000370 80 1f 3f bc 30 02 e6 bb 68 86 d3 bc 84 1b 81 3c
       -0.011665225 -0.0070193037 -0.025820926 0.01576019
000380 09 e1 20 bd 00 d1 a1 39 cc 6d 18 bd 38 75 11 3c
       -0.03927711 0.0003086403 -0.037214085 0.008878045
000390 38 b3 88 bc 98 b2 5a bd 43 e4 37 bd 90 e0 b2 bb
       -0.01668702 -0.053392977 -0.04489542 -0.005458899
0003a0 2a 4f 38 3d 24 4c dc 3c 5c ce e9 3c b1 78 7b bd
       0.04499737 0.026891775 0.028540783 -0.061394397
0003b0 65 c3 78 bd 6b 8e aa bd 6e 5f 97 bd 94 64 8d bd
       -0.060733218 -0.08327945 -0.07391249 -0.069039494
0003c0 86 f8 ab bd 0e 8f e3 bc 70 51 0b bd 90 a3 b5 3c
       -0.083970115 -0.027778175 -0.03401321 0.02217272
0003d0 00 5a 51 b9 52 1c 41 bd e7 a5 a4 3d 38 cd 60 3c
       -0.00019965321 -0.04714615 0.08039456 0.013720803
0003e0 3c b9 80 bd a0 73 0e 3b f6 b7 96 bd ab b0 24 bd
       -0.06285331 0.0021736398 -0.073593065 -0.040207546
0003f0 df 11 95 3d ee 6b 36 3d 49 2e 99 bd 50 36 88 bc
       0.07278799 0.044536524 -0.07479531 -0.01662746

conv.bias f4 [4]
000000 a0 62 cc 3c 38 60 bb 3c 47 47 b4 3d 4e 09 6f 3d
       0.024949372 0.02287303 0.088026576 0.058358483
